<?xml version="1.0" ?>
<net name="yolox_x" version="10">
	<layers>
		<layer id="0" name="2956296027773" type="Const" version="opset1">
			<data element_type="f16" offset="0" shape="" size="2"/>
			<output>
				<port id="0" precision="FP16"/>
			</output>
		</layer>
		<layer id="1" name="2957296127674" type="Const" version="opset1">
			<data element_type="f16" offset="2" shape="" size="2"/>
			<output>
				<port id="0" precision="FP16"/>
			</output>
		</layer>
		<layer id="2" name="2958296229912" type="Const" version="opset1">
			<data element_type="f16" offset="0" shape="" size="2"/>
			<output>
				<port id="0" precision="FP16"/>
			</output>
		</layer>
		<layer id="3" name="2959296327227" type="Const" version="opset1">
			<data element_type="f16" offset="2" shape="" size="2"/>
			<output>
				<port id="0" precision="FP16"/>
			</output>
		</layer>
		<layer id="4" name="5816582029690" type="Const" version="opset1">
			<data element_type="f16" offset="4" shape="" size="2"/>
			<output>
				<port id="0" precision="FP16"/>
			</output>
		</layer>
		<layer id="5" name="5817582127092" type="Const" version="opset1">
			<data element_type="f16" offset="6" shape="" size="2"/>
			<output>
				<port id="0" precision="FP16"/>
			</output>
		</layer>
		<layer id="6" name="5818582229021" type="Const" version="opset1">
			<data element_type="f16" offset="4" shape="" size="2"/>
			<output>
				<port id="0" precision="FP16"/>
			</output>
		</layer>
		<layer id="7" name="5819582329810" type="Const" version="opset1">
			<data element_type="f16" offset="6" shape="" size="2"/>
			<output>
				<port id="0" precision="FP16"/>
			</output>
		</layer>
		<layer id="8" name="5936594028736" type="Const" version="opset1">
			<data element_type="f16" offset="8" shape="" size="2"/>
			<output>
				<port id="0" precision="FP16"/>
			</output>
		</layer>
		<layer id="9" name="5937594126420" type="Const" version="opset1">
			<data element_type="f16" offset="10" shape="" size="2"/>
			<output>
				<port id="0" precision="FP16"/>
			</output>
		</layer>
		<layer id="10" name="5938594226723" type="Const" version="opset1">
			<data element_type="f16" offset="8" shape="" size="2"/>
			<output>
				<port id="0" precision="FP16"/>
			</output>
		</layer>
		<layer id="11" name="5939594330149" type="Const" version="opset1">
			<data element_type="f16" offset="10" shape="" size="2"/>
			<output>
				<port id="0" precision="FP16"/>
			</output>
		</layer>
		<layer id="12" name="3916392028088" type="Const" version="opset1">
			<data element_type="f16" offset="12" shape="" size="2"/>
			<output>
				<port id="0" precision="FP16"/>
			</output>
		</layer>
		<layer id="13" name="3917392126543" type="Const" version="opset1">
			<data element_type="f16" offset="14" shape="" size="2"/>
			<output>
				<port id="0" precision="FP16"/>
			</output>
		</layer>
		<layer id="14" name="3918392227725" type="Const" version="opset1">
			<data element_type="f16" offset="12" shape="" size="2"/>
			<output>
				<port id="0" precision="FP16"/>
			</output>
		</layer>
		<layer id="15" name="3919392326813" type="Const" version="opset1">
			<data element_type="f16" offset="14" shape="" size="2"/>
			<output>
				<port id="0" precision="FP16"/>
			</output>
		</layer>
		<layer id="16" name="8613861727026" type="Const" version="opset1">
			<data element_type="f16" offset="16" shape="" size="2"/>
			<output>
				<port id="0" precision="FP16"/>
			</output>
		</layer>
		<layer id="17" name="8614861829576" type="Const" version="opset1">
			<data element_type="f16" offset="18" shape="" size="2"/>
			<output>
				<port id="0" precision="FP16"/>
			</output>
		</layer>
		<layer id="18" name="8615861927692" type="Const" version="opset1">
			<data element_type="f16" offset="16" shape="" size="2"/>
			<output>
				<port id="0" precision="FP16"/>
			</output>
		</layer>
		<layer id="19" name="8616862029648" type="Const" version="opset1">
			<data element_type="f16" offset="18" shape="" size="2"/>
			<output>
				<port id="0" precision="FP16"/>
			</output>
		</layer>
		<layer id="20" name="5296530028514" type="Const" version="opset1">
			<data element_type="f16" offset="20" shape="" size="2"/>
			<output>
				<port id="0" precision="FP16"/>
			</output>
		</layer>
		<layer id="21" name="5297530128619" type="Const" version="opset1">
			<data element_type="f16" offset="22" shape="" size="2"/>
			<output>
				<port id="0" precision="FP16"/>
			</output>
		</layer>
		<layer id="22" name="5298530228622" type="Const" version="opset1">
			<data element_type="f16" offset="20" shape="" size="2"/>
			<output>
				<port id="0" precision="FP16"/>
			</output>
		</layer>
		<layer id="23" name="5299530328808" type="Const" version="opset1">
			<data element_type="f16" offset="22" shape="" size="2"/>
			<output>
				<port id="0" precision="FP16"/>
			</output>
		</layer>
		<layer id="24" name="6016602029705" type="Const" version="opset1">
			<data element_type="f16" offset="24" shape="" size="2"/>
			<output>
				<port id="0" precision="FP16"/>
			</output>
		</layer>
		<layer id="25" name="6017602127068" type="Const" version="opset1">
			<data element_type="f16" offset="26" shape="" size="2"/>
			<output>
				<port id="0" precision="FP16"/>
			</output>
		</layer>
		<layer id="26" name="6018602226828" type="Const" version="opset1">
			<data element_type="f16" offset="24" shape="" size="2"/>
			<output>
				<port id="0" precision="FP16"/>
			</output>
		</layer>
		<layer id="27" name="6019602327530" type="Const" version="opset1">
			<data element_type="f16" offset="26" shape="" size="2"/>
			<output>
				<port id="0" precision="FP16"/>
			</output>
		</layer>
		<layer id="28" name="5976598028706" type="Const" version="opset1">
			<data element_type="f16" offset="28" shape="" size="2"/>
			<output>
				<port id="0" precision="FP16"/>
			</output>
		</layer>
		<layer id="29" name="5977598128601" type="Const" version="opset1">
			<data element_type="f16" offset="30" shape="" size="2"/>
			<output>
				<port id="0" precision="FP16"/>
			</output>
		</layer>
		<layer id="30" name="5978598229219" type="Const" version="opset1">
			<data element_type="f16" offset="28" shape="" size="2"/>
			<output>
				<port id="0" precision="FP16"/>
			</output>
		</layer>
		<layer id="31" name="5979598326066" type="Const" version="opset1">
			<data element_type="f16" offset="30" shape="" size="2"/>
			<output>
				<port id="0" precision="FP16"/>
			</output>
		</layer>
		<layer id="32" name="3216322028397" type="Const" version="opset1">
			<data element_type="f16" offset="32" shape="" size="2"/>
			<output>
				<port id="0" precision="FP16"/>
			</output>
		</layer>
		<layer id="33" name="3217322127566" type="Const" version="opset1">
			<data element_type="f16" offset="34" shape="" size="2"/>
			<output>
				<port id="0" precision="FP16"/>
			</output>
		</layer>
		<layer id="34" name="3218322226585" type="Const" version="opset1">
			<data element_type="f16" offset="32" shape="" size="2"/>
			<output>
				<port id="0" precision="FP16"/>
			</output>
		</layer>
		<layer id="35" name="3219322328610" type="Const" version="opset1">
			<data element_type="f16" offset="34" shape="" size="2"/>
			<output>
				<port id="0" precision="FP16"/>
			</output>
		</layer>
		<layer id="36" name="5716572027716" type="Const" version="opset1">
			<data element_type="f16" offset="36" shape="" size="2"/>
			<output>
				<port id="0" precision="FP16"/>
			</output>
		</layer>
		<layer id="37" name="5717572126357" type="Const" version="opset1">
			<data element_type="f16" offset="38" shape="" size="2"/>
			<output>
				<port id="0" precision="FP16"/>
			</output>
		</layer>
		<layer id="38" name="5718572226894" type="Const" version="opset1">
			<data element_type="f16" offset="36" shape="" size="2"/>
			<output>
				<port id="0" precision="FP16"/>
			</output>
		</layer>
		<layer id="39" name="5719572329693" type="Const" version="opset1">
			<data element_type="f16" offset="38" shape="" size="2"/>
			<output>
				<port id="0" precision="FP16"/>
			</output>
		</layer>
		<layer id="40" name="5556556028625" type="Const" version="opset1">
			<data element_type="f16" offset="40" shape="" size="2"/>
			<output>
				<port id="0" precision="FP16"/>
			</output>
		</layer>
		<layer id="41" name="5557556129375" type="Const" version="opset1">
			<data element_type="f16" offset="42" shape="" size="2"/>
			<output>
				<port id="0" precision="FP16"/>
			</output>
		</layer>
		<layer id="42" name="5558556227176" type="Const" version="opset1">
			<data element_type="f16" offset="40" shape="" size="2"/>
			<output>
				<port id="0" precision="FP16"/>
			</output>
		</layer>
		<layer id="43" name="5559556327203" type="Const" version="opset1">
			<data element_type="f16" offset="42" shape="" size="2"/>
			<output>
				<port id="0" precision="FP16"/>
			</output>
		</layer>
		<layer id="44" name="3876388028556" type="Const" version="opset1">
			<data element_type="f16" offset="44" shape="" size="2"/>
			<output>
				<port id="0" precision="FP16"/>
			</output>
		</layer>
		<layer id="45" name="3877388128799" type="Const" version="opset1">
			<data element_type="f16" offset="46" shape="" size="2"/>
			<output>
				<port id="0" precision="FP16"/>
			</output>
		</layer>
		<layer id="46" name="3878388227095" type="Const" version="opset1">
			<data element_type="f16" offset="44" shape="" size="2"/>
			<output>
				<port id="0" precision="FP16"/>
			</output>
		</layer>
		<layer id="47" name="3879388326414" type="Const" version="opset1">
			<data element_type="f16" offset="46" shape="" size="2"/>
			<output>
				<port id="0" precision="FP16"/>
			</output>
		</layer>
		<layer id="48" name="6516652029267" type="Const" version="opset1">
			<data element_type="f16" offset="48" shape="" size="2"/>
			<output>
				<port id="0" precision="FP16"/>
			</output>
		</layer>
		<layer id="49" name="6517652127872" type="Const" version="opset1">
			<data element_type="f16" offset="50" shape="" size="2"/>
			<output>
				<port id="0" precision="FP16"/>
			</output>
		</layer>
		<layer id="50" name="6518652228766" type="Const" version="opset1">
			<data element_type="f16" offset="48" shape="" size="2"/>
			<output>
				<port id="0" precision="FP16"/>
			</output>
		</layer>
		<layer id="51" name="6519652328355" type="Const" version="opset1">
			<data element_type="f16" offset="50" shape="" size="2"/>
			<output>
				<port id="0" precision="FP16"/>
			</output>
		</layer>
		<layer id="52" name="8583858726456" type="Const" version="opset1">
			<data element_type="f16" offset="52" shape="" size="2"/>
			<output>
				<port id="0" precision="FP16"/>
			</output>
		</layer>
		<layer id="53" name="8584858829117" type="Const" version="opset1">
			<data element_type="f16" offset="54" shape="" size="2"/>
			<output>
				<port id="0" precision="FP16"/>
			</output>
		</layer>
		<layer id="54" name="8585858928328" type="Const" version="opset1">
			<data element_type="f16" offset="52" shape="" size="2"/>
			<output>
				<port id="0" precision="FP16"/>
			</output>
		</layer>
		<layer id="55" name="8586859029525" type="Const" version="opset1">
			<data element_type="f16" offset="54" shape="" size="2"/>
			<output>
				<port id="0" precision="FP16"/>
			</output>
		</layer>
		<layer id="56" name="8383838729816" type="Const" version="opset1">
			<data element_type="f16" offset="56" shape="" size="2"/>
			<output>
				<port id="0" precision="FP16"/>
			</output>
		</layer>
		<layer id="57" name="8384838829276" type="Const" version="opset1">
			<data element_type="f16" offset="58" shape="" size="2"/>
			<output>
				<port id="0" precision="FP16"/>
			</output>
		</layer>
		<layer id="58" name="8385838926087" type="Const" version="opset1">
			<data element_type="f16" offset="56" shape="" size="2"/>
			<output>
				<port id="0" precision="FP16"/>
			</output>
		</layer>
		<layer id="59" name="8386839029777" type="Const" version="opset1">
			<data element_type="f16" offset="58" shape="" size="2"/>
			<output>
				<port id="0" precision="FP16"/>
			</output>
		</layer>
		<layer id="60" name="5616562027905" type="Const" version="opset1">
			<data element_type="f16" offset="60" shape="" size="2"/>
			<output>
				<port id="0" precision="FP16"/>
			</output>
		</layer>
		<layer id="61" name="5617562128268" type="Const" version="opset1">
			<data element_type="f16" offset="62" shape="" size="2"/>
			<output>
				<port id="0" precision="FP16"/>
			</output>
		</layer>
		<layer id="62" name="5618562227128" type="Const" version="opset1">
			<data element_type="f16" offset="60" shape="" size="2"/>
			<output>
				<port id="0" precision="FP16"/>
			</output>
		</layer>
		<layer id="63" name="5619562326060" type="Const" version="opset1">
			<data element_type="f16" offset="62" shape="" size="2"/>
			<output>
				<port id="0" precision="FP16"/>
			</output>
		</layer>
		<layer id="64" name="5236524029897" type="Const" version="opset1">
			<data element_type="f16" offset="64" shape="" size="2"/>
			<output>
				<port id="0" precision="FP16"/>
			</output>
		</layer>
		<layer id="65" name="5237524127659" type="Const" version="opset1">
			<data element_type="f16" offset="66" shape="" size="2"/>
			<output>
				<port id="0" precision="FP16"/>
			</output>
		</layer>
		<layer id="66" name="5238524226528" type="Const" version="opset1">
			<data element_type="f16" offset="64" shape="" size="2"/>
			<output>
				<port id="0" precision="FP16"/>
			</output>
		</layer>
		<layer id="67" name="5239524327110" type="Const" version="opset1">
			<data element_type="f16" offset="66" shape="" size="2"/>
			<output>
				<port id="0" precision="FP16"/>
			</output>
		</layer>
		<layer id="68" name="5626563026444" type="Const" version="opset1">
			<data element_type="f16" offset="68" shape="" size="2"/>
			<output>
				<port id="0" precision="FP16"/>
			</output>
		</layer>
		<layer id="69" name="5627563128115" type="Const" version="opset1">
			<data element_type="f16" offset="70" shape="" size="2"/>
			<output>
				<port id="0" precision="FP16"/>
			</output>
		</layer>
		<layer id="70" name="5628563227875" type="Const" version="opset1">
			<data element_type="f16" offset="68" shape="" size="2"/>
			<output>
				<port id="0" precision="FP16"/>
			</output>
		</layer>
		<layer id="71" name="5629563326825" type="Const" version="opset1">
			<data element_type="f16" offset="70" shape="" size="2"/>
			<output>
				<port id="0" precision="FP16"/>
			</output>
		</layer>
		<layer id="72" name="5996600026831" type="Const" version="opset1">
			<data element_type="f16" offset="72" shape="" size="2"/>
			<output>
				<port id="0" precision="FP16"/>
			</output>
		</layer>
		<layer id="73" name="5997600128247" type="Const" version="opset1">
			<data element_type="f16" offset="74" shape="" size="2"/>
			<output>
				<port id="0" precision="FP16"/>
			</output>
		</layer>
		<layer id="74" name="5998600229318" type="Const" version="opset1">
			<data element_type="f16" offset="72" shape="" size="2"/>
			<output>
				<port id="0" precision="FP16"/>
			</output>
		</layer>
		<layer id="75" name="5999600327413" type="Const" version="opset1">
			<data element_type="f16" offset="74" shape="" size="2"/>
			<output>
				<port id="0" precision="FP16"/>
			</output>
		</layer>
		<layer id="76" name="5456546028265" type="Const" version="opset1">
			<data element_type="f16" offset="76" shape="" size="2"/>
			<output>
				<port id="0" precision="FP16"/>
			</output>
		</layer>
		<layer id="77" name="5457546128052" type="Const" version="opset1">
			<data element_type="f16" offset="78" shape="" size="2"/>
			<output>
				<port id="0" precision="FP16"/>
			</output>
		</layer>
		<layer id="78" name="5458546226327" type="Const" version="opset1">
			<data element_type="f16" offset="76" shape="" size="2"/>
			<output>
				<port id="0" precision="FP16"/>
			</output>
		</layer>
		<layer id="79" name="5459546328001" type="Const" version="opset1">
			<data element_type="f16" offset="78" shape="" size="2"/>
			<output>
				<port id="0" precision="FP16"/>
			</output>
		</layer>
		<layer id="80" name="6006601026501" type="Const" version="opset1">
			<data element_type="f16" offset="80" shape="" size="2"/>
			<output>
				<port id="0" precision="FP16"/>
			</output>
		</layer>
		<layer id="81" name="6007601128304" type="Const" version="opset1">
			<data element_type="f16" offset="82" shape="" size="2"/>
			<output>
				<port id="0" precision="FP16"/>
			</output>
		</layer>
		<layer id="82" name="6008601228292" type="Const" version="opset1">
			<data element_type="f16" offset="80" shape="" size="2"/>
			<output>
				<port id="0" precision="FP16"/>
			</output>
		</layer>
		<layer id="83" name="6009601327194" type="Const" version="opset1">
			<data element_type="f16" offset="82" shape="" size="2"/>
			<output>
				<port id="0" precision="FP16"/>
			</output>
		</layer>
		<layer id="84" name="4796480028739" type="Const" version="opset1">
			<data element_type="f16" offset="84" shape="" size="2"/>
			<output>
				<port id="0" precision="FP16"/>
			</output>
		</layer>
		<layer id="85" name="4797480129975" type="Const" version="opset1">
			<data element_type="f16" offset="86" shape="" size="2"/>
			<output>
				<port id="0" precision="FP16"/>
			</output>
		</layer>
		<layer id="86" name="4798480228841" type="Const" version="opset1">
			<data element_type="f16" offset="84" shape="" size="2"/>
			<output>
				<port id="0" precision="FP16"/>
			</output>
		</layer>
		<layer id="87" name="4799480327752" type="Const" version="opset1">
			<data element_type="f16" offset="86" shape="" size="2"/>
			<output>
				<port id="0" precision="FP16"/>
			</output>
		</layer>
		<layer id="88" name="4396440026519" type="Const" version="opset1">
			<data element_type="f16" offset="88" shape="" size="2"/>
			<output>
				<port id="0" precision="FP16"/>
			</output>
		</layer>
		<layer id="89" name="4397440129885" type="Const" version="opset1">
			<data element_type="f16" offset="90" shape="" size="2"/>
			<output>
				<port id="0" precision="FP16"/>
			</output>
		</layer>
		<layer id="90" name="4398440226864" type="Const" version="opset1">
			<data element_type="f16" offset="88" shape="" size="2"/>
			<output>
				<port id="0" precision="FP16"/>
			</output>
		</layer>
		<layer id="91" name="4399440326660" type="Const" version="opset1">
			<data element_type="f16" offset="90" shape="" size="2"/>
			<output>
				<port id="0" precision="FP16"/>
			</output>
		</layer>
		<layer id="92" name="4806481027965" type="Const" version="opset1">
			<data element_type="f16" offset="92" shape="" size="2"/>
			<output>
				<port id="0" precision="FP16"/>
			</output>
		</layer>
		<layer id="93" name="4807481127989" type="Const" version="opset1">
			<data element_type="f16" offset="94" shape="" size="2"/>
			<output>
				<port id="0" precision="FP16"/>
			</output>
		</layer>
		<layer id="94" name="4808481228403" type="Const" version="opset1">
			<data element_type="f16" offset="92" shape="" size="2"/>
			<output>
				<port id="0" precision="FP16"/>
			</output>
		</layer>
		<layer id="95" name="4809481329858" type="Const" version="opset1">
			<data element_type="f16" offset="94" shape="" size="2"/>
			<output>
				<port id="0" precision="FP16"/>
			</output>
		</layer>
		<layer id="96" name="5796580028139" type="Const" version="opset1">
			<data element_type="f16" offset="96" shape="" size="2"/>
			<output>
				<port id="0" precision="FP16"/>
			</output>
		</layer>
		<layer id="97" name="5797580128586" type="Const" version="opset1">
			<data element_type="f16" offset="98" shape="" size="2"/>
			<output>
				<port id="0" precision="FP16"/>
			</output>
		</layer>
		<layer id="98" name="5798580226732" type="Const" version="opset1">
			<data element_type="f16" offset="96" shape="" size="2"/>
			<output>
				<port id="0" precision="FP16"/>
			</output>
		</layer>
		<layer id="99" name="5799580326450" type="Const" version="opset1">
			<data element_type="f16" offset="98" shape="" size="2"/>
			<output>
				<port id="0" precision="FP16"/>
			</output>
		</layer>
		<layer id="100" name="5156516026738" type="Const" version="opset1">
			<data element_type="f16" offset="76" shape="" size="2"/>
			<output>
				<port id="0" precision="FP16"/>
			</output>
		</layer>
		<layer id="101" name="5157516128550" type="Const" version="opset1">
			<data element_type="f16" offset="78" shape="" size="2"/>
			<output>
				<port id="0" precision="FP16"/>
			</output>
		</layer>
		<layer id="102" name="5158516228337" type="Const" version="opset1">
			<data element_type="f16" offset="76" shape="" size="2"/>
			<output>
				<port id="0" precision="FP16"/>
			</output>
		</layer>
		<layer id="103" name="5159516329618" type="Const" version="opset1">
			<data element_type="f16" offset="78" shape="" size="2"/>
			<output>
				<port id="0" precision="FP16"/>
			</output>
		</layer>
		<layer id="104" name="5806581026468" type="Const" version="opset1">
			<data element_type="f16" offset="100" shape="" size="2"/>
			<output>
				<port id="0" precision="FP16"/>
			</output>
		</layer>
		<layer id="105" name="5807581127608" type="Const" version="opset1">
			<data element_type="f16" offset="102" shape="" size="2"/>
			<output>
				<port id="0" precision="FP16"/>
			</output>
		</layer>
		<layer id="106" name="5808581228430" type="Const" version="opset1">
			<data element_type="f16" offset="100" shape="" size="2"/>
			<output>
				<port id="0" precision="FP16"/>
			</output>
		</layer>
		<layer id="107" name="5809581326699" type="Const" version="opset1">
			<data element_type="f16" offset="102" shape="" size="2"/>
			<output>
				<port id="0" precision="FP16"/>
			</output>
		</layer>
		<layer id="108" name="5396540029009" type="Const" version="opset1">
			<data element_type="f16" offset="104" shape="" size="2"/>
			<output>
				<port id="0" precision="FP16"/>
			</output>
		</layer>
		<layer id="109" name="5397540128721" type="Const" version="opset1">
			<data element_type="f16" offset="106" shape="" size="2"/>
			<output>
				<port id="0" precision="FP16"/>
			</output>
		</layer>
		<layer id="110" name="5398540227980" type="Const" version="opset1">
			<data element_type="f16" offset="104" shape="" size="2"/>
			<output>
				<port id="0" precision="FP16"/>
			</output>
		</layer>
		<layer id="111" name="5399540326612" type="Const" version="opset1">
			<data element_type="f16" offset="106" shape="" size="2"/>
			<output>
				<port id="0" precision="FP16"/>
			</output>
		</layer>
		<layer id="112" name="5636564026774" type="Const" version="opset1">
			<data element_type="f16" offset="108" shape="" size="2"/>
			<output>
				<port id="0" precision="FP16"/>
			</output>
		</layer>
		<layer id="113" name="5637564126717" type="Const" version="opset1">
			<data element_type="f16" offset="110" shape="" size="2"/>
			<output>
				<port id="0" precision="FP16"/>
			</output>
		</layer>
		<layer id="114" name="5638564226570" type="Const" version="opset1">
			<data element_type="f16" offset="108" shape="" size="2"/>
			<output>
				<port id="0" precision="FP16"/>
			</output>
		</layer>
		<layer id="115" name="5639564327347" type="Const" version="opset1">
			<data element_type="f16" offset="110" shape="" size="2"/>
			<output>
				<port id="0" precision="FP16"/>
			</output>
		</layer>
		<layer id="116" name="5406541028532" type="Const" version="opset1">
			<data element_type="f16" offset="112" shape="" size="2"/>
			<output>
				<port id="0" precision="FP16"/>
			</output>
		</layer>
		<layer id="117" name="5407541127257" type="Const" version="opset1">
			<data element_type="f16" offset="114" shape="" size="2"/>
			<output>
				<port id="0" precision="FP16"/>
			</output>
		</layer>
		<layer id="118" name="5408541229882" type="Const" version="opset1">
			<data element_type="f16" offset="112" shape="" size="2"/>
			<output>
				<port id="0" precision="FP16"/>
			</output>
		</layer>
		<layer id="119" name="5409541328388" type="Const" version="opset1">
			<data element_type="f16" offset="114" shape="" size="2"/>
			<output>
				<port id="0" precision="FP16"/>
			</output>
		</layer>
		<layer id="120" name="6356636026939" type="Const" version="opset1">
			<data element_type="f16" offset="116" shape="" size="2"/>
			<output>
				<port id="0" precision="FP16"/>
			</output>
		</layer>
		<layer id="121" name="6357636127866" type="Const" version="opset1">
			<data element_type="f16" offset="118" shape="" size="2"/>
			<output>
				<port id="0" precision="FP16"/>
			</output>
		</layer>
		<layer id="122" name="6358636228496" type="Const" version="opset1">
			<data element_type="f16" offset="116" shape="" size="2"/>
			<output>
				<port id="0" precision="FP16"/>
			</output>
		</layer>
		<layer id="123" name="6359636328136" type="Const" version="opset1">
			<data element_type="f16" offset="118" shape="" size="2"/>
			<output>
				<port id="0" precision="FP16"/>
			</output>
		</layer>
		<layer id="124" name="3516352028103" type="Const" version="opset1">
			<data element_type="f16" offset="120" shape="" size="2"/>
			<output>
				<port id="0" precision="FP16"/>
			</output>
		</layer>
		<layer id="125" name="3517352128952" type="Const" version="opset1">
			<data element_type="f16" offset="122" shape="" size="2"/>
			<output>
				<port id="0" precision="FP16"/>
			</output>
		</layer>
		<layer id="126" name="3518352228019" type="Const" version="opset1">
			<data element_type="f16" offset="120" shape="" size="2"/>
			<output>
				<port id="0" precision="FP16"/>
			</output>
		</layer>
		<layer id="127" name="3519352329225" type="Const" version="opset1">
			<data element_type="f16" offset="122" shape="" size="2"/>
			<output>
				<port id="0" precision="FP16"/>
			</output>
		</layer>
		<layer id="128" name="6366637030020" type="Const" version="opset1">
			<data element_type="f16" offset="124" shape="" size="2"/>
			<output>
				<port id="0" precision="FP16"/>
			</output>
		</layer>
		<layer id="129" name="6367637127644" type="Const" version="opset1">
			<data element_type="f16" offset="126" shape="" size="2"/>
			<output>
				<port id="0" precision="FP16"/>
			</output>
		</layer>
		<layer id="130" name="6368637227275" type="Const" version="opset1">
			<data element_type="f16" offset="124" shape="" size="2"/>
			<output>
				<port id="0" precision="FP16"/>
			</output>
		</layer>
		<layer id="131" name="6369637326684" type="Const" version="opset1">
			<data element_type="f16" offset="126" shape="" size="2"/>
			<output>
				<port id="0" precision="FP16"/>
			</output>
		</layer>
		<layer id="132" name="5656566027569" type="Const" version="opset1">
			<data element_type="f16" offset="128" shape="" size="2"/>
			<output>
				<port id="0" precision="FP16"/>
			</output>
		</layer>
		<layer id="133" name="5657566127140" type="Const" version="opset1">
			<data element_type="f16" offset="130" shape="" size="2"/>
			<output>
				<port id="0" precision="FP16"/>
			</output>
		</layer>
		<layer id="134" name="5658566226993" type="Const" version="opset1">
			<data element_type="f16" offset="128" shape="" size="2"/>
			<output>
				<port id="0" precision="FP16"/>
			</output>
		</layer>
		<layer id="135" name="5659566330014" type="Const" version="opset1">
			<data element_type="f16" offset="130" shape="" size="2"/>
			<output>
				<port id="0" precision="FP16"/>
			</output>
		</layer>
		<layer id="136" name="4556456028370" type="Const" version="opset1">
			<data element_type="f16" offset="132" shape="" size="2"/>
			<output>
				<port id="0" precision="FP16"/>
			</output>
		</layer>
		<layer id="137" name="4557456126489" type="Const" version="opset1">
			<data element_type="f16" offset="134" shape="" size="2"/>
			<output>
				<port id="0" precision="FP16"/>
			</output>
		</layer>
		<layer id="138" name="4558456226984" type="Const" version="opset1">
			<data element_type="f16" offset="132" shape="" size="2"/>
			<output>
				<port id="0" precision="FP16"/>
			</output>
		</layer>
		<layer id="139" name="4559456327077" type="Const" version="opset1">
			<data element_type="f16" offset="134" shape="" size="2"/>
			<output>
				<port id="0" precision="FP16"/>
			</output>
		</layer>
		<layer id="140" name="5666567027254" type="Const" version="opset1">
			<data element_type="f16" offset="136" shape="" size="2"/>
			<output>
				<port id="0" precision="FP16"/>
			</output>
		</layer>
		<layer id="141" name="5667567127440" type="Const" version="opset1">
			<data element_type="f16" offset="138" shape="" size="2"/>
			<output>
				<port id="0" precision="FP16"/>
			</output>
		</layer>
		<layer id="142" name="5668567228631" type="Const" version="opset1">
			<data element_type="f16" offset="136" shape="" size="2"/>
			<output>
				<port id="0" precision="FP16"/>
			</output>
		</layer>
		<layer id="143" name="5669567328346" type="Const" version="opset1">
			<data element_type="f16" offset="138" shape="" size="2"/>
			<output>
				<port id="0" precision="FP16"/>
			</output>
		</layer>
		<layer id="144" name="5436544029579" type="Const" version="opset1">
			<data element_type="f16" offset="140" shape="" size="2"/>
			<output>
				<port id="0" precision="FP16"/>
			</output>
		</layer>
		<layer id="145" name="5437544126492" type="Const" version="opset1">
			<data element_type="f16" offset="142" shape="" size="2"/>
			<output>
				<port id="0" precision="FP16"/>
			</output>
		</layer>
		<layer id="146" name="5438544228061" type="Const" version="opset1">
			<data element_type="f16" offset="140" shape="" size="2"/>
			<output>
				<port id="0" precision="FP16"/>
			</output>
		</layer>
		<layer id="147" name="5439544329045" type="Const" version="opset1">
			<data element_type="f16" offset="142" shape="" size="2"/>
			<output>
				<port id="0" precision="FP16"/>
			</output>
		</layer>
		<layer id="148" name="3996400029264" type="Const" version="opset1">
			<data element_type="f16" offset="144" shape="" size="2"/>
			<output>
				<port id="0" precision="FP16"/>
			</output>
		</layer>
		<layer id="149" name="3997400127317" type="Const" version="opset1">
			<data element_type="f16" offset="146" shape="" size="2"/>
			<output>
				<port id="0" precision="FP16"/>
			</output>
		</layer>
		<layer id="150" name="3998400227878" type="Const" version="opset1">
			<data element_type="f16" offset="144" shape="" size="2"/>
			<output>
				<port id="0" precision="FP16"/>
			</output>
		</layer>
		<layer id="151" name="3999400326801" type="Const" version="opset1">
			<data element_type="f16" offset="146" shape="" size="2"/>
			<output>
				<port id="0" precision="FP16"/>
			</output>
		</layer>
		<layer id="152" name="5446545028151" type="Const" version="opset1">
			<data element_type="f16" offset="148" shape="" size="2"/>
			<output>
				<port id="0" precision="FP16"/>
			</output>
		</layer>
		<layer id="153" name="5447545127794" type="Const" version="opset1">
			<data element_type="f16" offset="150" shape="" size="2"/>
			<output>
				<port id="0" precision="FP16"/>
			</output>
		</layer>
		<layer id="154" name="5448545228523" type="Const" version="opset1">
			<data element_type="f16" offset="148" shape="" size="2"/>
			<output>
				<port id="0" precision="FP16"/>
			</output>
		</layer>
		<layer id="155" name="5449545330077" type="Const" version="opset1">
			<data element_type="f16" offset="150" shape="" size="2"/>
			<output>
				<port id="0" precision="FP16"/>
			</output>
		</layer>
		<layer id="156" name="5136514027602" type="Const" version="opset1">
			<data element_type="f16" offset="152" shape="" size="2"/>
			<output>
				<port id="0" precision="FP16"/>
			</output>
		</layer>
		<layer id="157" name="5137514126672" type="Const" version="opset1">
			<data element_type="f16" offset="154" shape="" size="2"/>
			<output>
				<port id="0" precision="FP16"/>
			</output>
		</layer>
		<layer id="158" name="5138514228478" type="Const" version="opset1">
			<data element_type="f16" offset="152" shape="" size="2"/>
			<output>
				<port id="0" precision="FP16"/>
			</output>
		</layer>
		<layer id="159" name="5139514328196" type="Const" version="opset1">
			<data element_type="f16" offset="154" shape="" size="2"/>
			<output>
				<port id="0" precision="FP16"/>
			</output>
		</layer>
		<layer id="160" name="6236624030119" type="Const" version="opset1">
			<data element_type="f16" offset="156" shape="" size="2"/>
			<output>
				<port id="0" precision="FP16"/>
			</output>
		</layer>
		<layer id="161" name="6237624127527" type="Const" version="opset1">
			<data element_type="f16" offset="158" shape="" size="2"/>
			<output>
				<port id="0" precision="FP16"/>
			</output>
		</layer>
		<layer id="162" name="6238624229255" type="Const" version="opset1">
			<data element_type="f16" offset="156" shape="" size="2"/>
			<output>
				<port id="0" precision="FP16"/>
			</output>
		</layer>
		<layer id="163" name="6239624326621" type="Const" version="opset1">
			<data element_type="f16" offset="158" shape="" size="2"/>
			<output>
				<port id="0" precision="FP16"/>
			</output>
		</layer>
		<layer id="164" name="5146515027017" type="Const" version="opset1">
			<data element_type="f16" offset="160" shape="" size="2"/>
			<output>
				<port id="0" precision="FP16"/>
			</output>
		</layer>
		<layer id="165" name="5147515127746" type="Const" version="opset1">
			<data element_type="f16" offset="162" shape="" size="2"/>
			<output>
				<port id="0" precision="FP16"/>
			</output>
		</layer>
		<layer id="166" name="5148515228922" type="Const" version="opset1">
			<data element_type="f16" offset="160" shape="" size="2"/>
			<output>
				<port id="0" precision="FP16"/>
			</output>
		</layer>
		<layer id="167" name="5149515327956" type="Const" version="opset1">
			<data element_type="f16" offset="162" shape="" size="2"/>
			<output>
				<port id="0" precision="FP16"/>
			</output>
		</layer>
		<layer id="168" name="4296430027053" type="Const" version="opset1">
			<data element_type="f16" offset="164" shape="" size="2"/>
			<output>
				<port id="0" precision="FP16"/>
			</output>
		</layer>
		<layer id="169" name="4297430127179" type="Const" version="opset1">
			<data element_type="f16" offset="166" shape="" size="2"/>
			<output>
				<port id="0" precision="FP16"/>
			</output>
		</layer>
		<layer id="170" name="4298430229036" type="Const" version="opset1">
			<data element_type="f16" offset="164" shape="" size="2"/>
			<output>
				<port id="0" precision="FP16"/>
			</output>
		</layer>
		<layer id="171" name="4299430327014" type="Const" version="opset1">
			<data element_type="f16" offset="166" shape="" size="2"/>
			<output>
				<port id="0" precision="FP16"/>
			</output>
		</layer>
		<layer id="172" name="3056306027839" type="Const" version="opset1">
			<data element_type="f16" offset="168" shape="" size="2"/>
			<output>
				<port id="0" precision="FP16"/>
			</output>
		</layer>
		<layer id="173" name="3057306129195" type="Const" version="opset1">
			<data element_type="f16" offset="170" shape="" size="2"/>
			<output>
				<port id="0" precision="FP16"/>
			</output>
		</layer>
		<layer id="174" name="3058306229303" type="Const" version="opset1">
			<data element_type="f16" offset="168" shape="" size="2"/>
			<output>
				<port id="0" precision="FP16"/>
			</output>
		</layer>
		<layer id="175" name="3059306330107" type="Const" version="opset1">
			<data element_type="f16" offset="170" shape="" size="2"/>
			<output>
				<port id="0" precision="FP16"/>
			</output>
		</layer>
		<layer id="176" name="4306431029480" type="Const" version="opset1">
			<data element_type="f16" offset="172" shape="" size="2"/>
			<output>
				<port id="0" precision="FP16"/>
			</output>
		</layer>
		<layer id="177" name="4307431126396" type="Const" version="opset1">
			<data element_type="f16" offset="174" shape="" size="2"/>
			<output>
				<port id="0" precision="FP16"/>
			</output>
		</layer>
		<layer id="178" name="4308431226114" type="Const" version="opset1">
			<data element_type="f16" offset="172" shape="" size="2"/>
			<output>
				<port id="0" precision="FP16"/>
			</output>
		</layer>
		<layer id="179" name="4309431328529" type="Const" version="opset1">
			<data element_type="f16" offset="174" shape="" size="2"/>
			<output>
				<port id="0" precision="FP16"/>
			</output>
		</layer>
		<layer id="180" name="6396640029483" type="Const" version="opset1">
			<data element_type="f16" offset="176" shape="" size="2"/>
			<output>
				<port id="0" precision="FP16"/>
			</output>
		</layer>
		<layer id="181" name="6397640127089" type="Const" version="opset1">
			<data element_type="f16" offset="178" shape="" size="2"/>
			<output>
				<port id="0" precision="FP16"/>
			</output>
		</layer>
		<layer id="182" name="6398640227281" type="Const" version="opset1">
			<data element_type="f16" offset="176" shape="" size="2"/>
			<output>
				<port id="0" precision="FP16"/>
			</output>
		</layer>
		<layer id="183" name="6399640327284" type="Const" version="opset1">
			<data element_type="f16" offset="178" shape="" size="2"/>
			<output>
				<port id="0" precision="FP16"/>
			</output>
		</layer>
		<layer id="184" name="4356436027479" type="Const" version="opset1">
			<data element_type="f16" offset="180" shape="" size="2"/>
			<output>
				<port id="0" precision="FP16"/>
			</output>
		</layer>
		<layer id="185" name="4357436130041" type="Const" version="opset1">
			<data element_type="f16" offset="182" shape="" size="2"/>
			<output>
				<port id="0" precision="FP16"/>
			</output>
		</layer>
		<layer id="186" name="4358436226426" type="Const" version="opset1">
			<data element_type="f16" offset="180" shape="" size="2"/>
			<output>
				<port id="0" precision="FP16"/>
			</output>
		</layer>
		<layer id="187" name="4359436327185" type="Const" version="opset1">
			<data element_type="f16" offset="182" shape="" size="2"/>
			<output>
				<port id="0" precision="FP16"/>
			</output>
		</layer>
		<layer id="188" name="6406641028334" type="Const" version="opset1">
			<data element_type="f16" offset="184" shape="" size="2"/>
			<output>
				<port id="0" precision="FP16"/>
			</output>
		</layer>
		<layer id="189" name="6407641127218" type="Const" version="opset1">
			<data element_type="f16" offset="186" shape="" size="2"/>
			<output>
				<port id="0" precision="FP16"/>
			</output>
		</layer>
		<layer id="190" name="6408641229768" type="Const" version="opset1">
			<data element_type="f16" offset="184" shape="" size="2"/>
			<output>
				<port id="0" precision="FP16"/>
			</output>
		</layer>
		<layer id="191" name="6409641328670" type="Const" version="opset1">
			<data element_type="f16" offset="186" shape="" size="2"/>
			<output>
				<port id="0" precision="FP16"/>
			</output>
		</layer>
		<layer id="192" name="5416542030071" type="Const" version="opset1">
			<data element_type="f16" offset="188" shape="" size="2"/>
			<output>
				<port id="0" precision="FP16"/>
			</output>
		</layer>
		<layer id="193" name="5417542126819" type="Const" version="opset1">
			<data element_type="f16" offset="190" shape="" size="2"/>
			<output>
				<port id="0" precision="FP16"/>
			</output>
		</layer>
		<layer id="194" name="5418542226210" type="Const" version="opset1">
			<data element_type="f16" offset="188" shape="" size="2"/>
			<output>
				<port id="0" precision="FP16"/>
			</output>
		</layer>
		<layer id="195" name="5419542329630" type="Const" version="opset1">
			<data element_type="f16" offset="190" shape="" size="2"/>
			<output>
				<port id="0" precision="FP16"/>
			</output>
		</layer>
		<layer id="196" name="2876288027881" type="Const" version="opset1">
			<data element_type="f16" offset="192" shape="" size="2"/>
			<output>
				<port id="0" precision="FP16"/>
			</output>
		</layer>
		<layer id="197" name="2877288128511" type="Const" version="opset1">
			<data element_type="f16" offset="194" shape="" size="2"/>
			<output>
				<port id="0" precision="FP16"/>
			</output>
		</layer>
		<layer id="198" name="2878288227374" type="Const" version="opset1">
			<data element_type="f16" offset="192" shape="" size="2"/>
			<output>
				<port id="0" precision="FP16"/>
			</output>
		</layer>
		<layer id="199" name="2879288328874" type="Const" version="opset1">
			<data element_type="f16" offset="194" shape="" size="2"/>
			<output>
				<port id="0" precision="FP16"/>
			</output>
		</layer>
		<layer id="200" name="5426543028121" type="Const" version="opset1">
			<data element_type="f16" offset="196" shape="" size="2"/>
			<output>
				<port id="0" precision="FP16"/>
			</output>
		</layer>
		<layer id="201" name="5427543128910" type="Const" version="opset1">
			<data element_type="f16" offset="198" shape="" size="2"/>
			<output>
				<port id="0" precision="FP16"/>
			</output>
		</layer>
		<layer id="202" name="5428543229957" type="Const" version="opset1">
			<data element_type="f16" offset="196" shape="" size="2"/>
			<output>
				<port id="0" precision="FP16"/>
			</output>
		</layer>
		<layer id="203" name="5429543329735" type="Const" version="opset1">
			<data element_type="f16" offset="198" shape="" size="2"/>
			<output>
				<port id="0" precision="FP16"/>
			</output>
		</layer>
		<layer id="204" name="3376338026972" type="Const" version="opset1">
			<data element_type="f16" offset="200" shape="" size="2"/>
			<output>
				<port id="0" precision="FP16"/>
			</output>
		</layer>
		<layer id="205" name="3377338127623" type="Const" version="opset1">
			<data element_type="f16" offset="202" shape="" size="2"/>
			<output>
				<port id="0" precision="FP16"/>
			</output>
		</layer>
		<layer id="206" name="3378338228427" type="Const" version="opset1">
			<data element_type="f16" offset="200" shape="" size="2"/>
			<output>
				<port id="0" precision="FP16"/>
			</output>
		</layer>
		<layer id="207" name="3379338327665" type="Const" version="opset1">
			<data element_type="f16" offset="202" shape="" size="2"/>
			<output>
				<port id="0" precision="FP16"/>
			</output>
		</layer>
		<layer id="208" name="3716372029411" type="Const" version="opset1">
			<data element_type="f16" offset="204" shape="" size="2"/>
			<output>
				<port id="0" precision="FP16"/>
			</output>
		</layer>
		<layer id="209" name="3717372126606" type="Const" version="opset1">
			<data element_type="f16" offset="206" shape="" size="2"/>
			<output>
				<port id="0" precision="FP16"/>
			</output>
		</layer>
		<layer id="210" name="3718372226111" type="Const" version="opset1">
			<data element_type="f16" offset="204" shape="" size="2"/>
			<output>
				<port id="0" precision="FP16"/>
			</output>
		</layer>
		<layer id="211" name="3719372327428" type="Const" version="opset1">
			<data element_type="f16" offset="206" shape="" size="2"/>
			<output>
				<port id="0" precision="FP16"/>
			</output>
		</layer>
		<layer id="212" name="8913891728484" type="Const" version="opset1">
			<data element_type="f16" offset="208" shape="" size="2"/>
			<output>
				<port id="0" precision="FP16"/>
			</output>
		</layer>
		<layer id="213" name="8914891827914" type="Const" version="opset1">
			<data element_type="f16" offset="210" shape="" size="2"/>
			<output>
				<port id="0" precision="FP16"/>
			</output>
		</layer>
		<layer id="214" name="8915891927425" type="Const" version="opset1">
			<data element_type="f16" offset="208" shape="" size="2"/>
			<output>
				<port id="0" precision="FP16"/>
			</output>
		</layer>
		<layer id="215" name="8916892028433" type="Const" version="opset1">
			<data element_type="f16" offset="210" shape="" size="2"/>
			<output>
				<port id="0" precision="FP16"/>
			</output>
		</layer>
		<layer id="216" name="4176418029414" type="Const" version="opset1">
			<data element_type="f16" offset="212" shape="" size="2"/>
			<output>
				<port id="0" precision="FP16"/>
			</output>
		</layer>
		<layer id="217" name="4177418128769" type="Const" version="opset1">
			<data element_type="f16" offset="214" shape="" size="2"/>
			<output>
				<port id="0" precision="FP16"/>
			</output>
		</layer>
		<layer id="218" name="4178418228877" type="Const" version="opset1">
			<data element_type="f16" offset="212" shape="" size="2"/>
			<output>
				<port id="0" precision="FP16"/>
			</output>
		</layer>
		<layer id="219" name="4179418327083" type="Const" version="opset1">
			<data element_type="f16" offset="214" shape="" size="2"/>
			<output>
				<port id="0" precision="FP16"/>
			</output>
		</layer>
		<layer id="220" name="5536554029537" type="Const" version="opset1">
			<data element_type="f16" offset="216" shape="" size="2"/>
			<output>
				<port id="0" precision="FP16"/>
			</output>
		</layer>
		<layer id="221" name="5537554126507" type="Const" version="opset1">
			<data element_type="f16" offset="218" shape="" size="2"/>
			<output>
				<port id="0" precision="FP16"/>
			</output>
		</layer>
		<layer id="222" name="5538554228814" type="Const" version="opset1">
			<data element_type="f16" offset="216" shape="" size="2"/>
			<output>
				<port id="0" precision="FP16"/>
			</output>
		</layer>
		<layer id="223" name="5539554330131" type="Const" version="opset1">
			<data element_type="f16" offset="218" shape="" size="2"/>
			<output>
				<port id="0" precision="FP16"/>
			</output>
		</layer>
		<layer id="224" name="4186419029075" type="Const" version="opset1">
			<data element_type="f16" offset="220" shape="" size="2"/>
			<output>
				<port id="0" precision="FP16"/>
			</output>
		</layer>
		<layer id="225" name="4187419129078" type="Const" version="opset1">
			<data element_type="f16" offset="222" shape="" size="2"/>
			<output>
				<port id="0" precision="FP16"/>
			</output>
		</layer>
		<layer id="226" name="4188419229372" type="Const" version="opset1">
			<data element_type="f16" offset="220" shape="" size="2"/>
			<output>
				<port id="0" precision="FP16"/>
			</output>
		</layer>
		<layer id="227" name="4189419329327" type="Const" version="opset1">
			<data element_type="f16" offset="222" shape="" size="2"/>
			<output>
				<port id="0" precision="FP16"/>
			</output>
		</layer>
		<layer id="228" name="4736474027908" type="Const" version="opset1">
			<data element_type="f16" offset="224" shape="" size="2"/>
			<output>
				<port id="0" precision="FP16"/>
			</output>
		</layer>
		<layer id="229" name="4737474129033" type="Const" version="opset1">
			<data element_type="f16" offset="226" shape="" size="2"/>
			<output>
				<port id="0" precision="FP16"/>
			</output>
		</layer>
		<layer id="230" name="4738474229846" type="Const" version="opset1">
			<data element_type="f16" offset="224" shape="" size="2"/>
			<output>
				<port id="0" precision="FP16"/>
			</output>
		</layer>
		<layer id="231" name="4739474326936" type="Const" version="opset1">
			<data element_type="f16" offset="226" shape="" size="2"/>
			<output>
				<port id="0" precision="FP16"/>
			</output>
		</layer>
		<layer id="232" name="4636464027932" type="Const" version="opset1">
			<data element_type="f16" offset="228" shape="" size="2"/>
			<output>
				<port id="0" precision="FP16"/>
			</output>
		</layer>
		<layer id="233" name="4637464127104" type="Const" version="opset1">
			<data element_type="f16" offset="230" shape="" size="2"/>
			<output>
				<port id="0" precision="FP16"/>
			</output>
		</layer>
		<layer id="234" name="4638464228034" type="Const" version="opset1">
			<data element_type="f16" offset="228" shape="" size="2"/>
			<output>
				<port id="0" precision="FP16"/>
			</output>
		</layer>
		<layer id="235" name="4639464329864" type="Const" version="opset1">
			<data element_type="f16" offset="230" shape="" size="2"/>
			<output>
				<port id="0" precision="FP16"/>
			</output>
		</layer>
		<layer id="236" name="4746475026867" type="Const" version="opset1">
			<data element_type="f16" offset="232" shape="" size="2"/>
			<output>
				<port id="0" precision="FP16"/>
			</output>
		</layer>
		<layer id="237" name="4747475126954" type="Const" version="opset1">
			<data element_type="f16" offset="234" shape="" size="2"/>
			<output>
				<port id="0" precision="FP16"/>
			</output>
		</layer>
		<layer id="238" name="4748475229051" type="Const" version="opset1">
			<data element_type="f16" offset="232" shape="" size="2"/>
			<output>
				<port id="0" precision="FP16"/>
			</output>
		</layer>
		<layer id="239" name="4749475328520" type="Const" version="opset1">
			<data element_type="f16" offset="234" shape="" size="2"/>
			<output>
				<port id="0" precision="FP16"/>
			</output>
		</layer>
		<layer id="240" name="4696470028796" type="Const" version="opset1">
			<data element_type="f16" offset="236" shape="" size="2"/>
			<output>
				<port id="0" precision="FP16"/>
			</output>
		</layer>
		<layer id="241" name="4697470127311" type="Const" version="opset1">
			<data element_type="f16" offset="238" shape="" size="2"/>
			<output>
				<port id="0" precision="FP16"/>
			</output>
		</layer>
		<layer id="242" name="4698470228073" type="Const" version="opset1">
			<data element_type="f16" offset="236" shape="" size="2"/>
			<output>
				<port id="0" precision="FP16"/>
			</output>
		</layer>
		<layer id="243" name="4699470329921" type="Const" version="opset1">
			<data element_type="f16" offset="238" shape="" size="2"/>
			<output>
				<port id="0" precision="FP16"/>
			</output>
		</layer>
		<layer id="244" name="4656466028022" type="Const" version="opset1">
			<data element_type="f16" offset="240" shape="" size="2"/>
			<output>
				<port id="0" precision="FP16"/>
			</output>
		</layer>
		<layer id="245" name="4657466130140" type="Const" version="opset1">
			<data element_type="f16" offset="242" shape="" size="2"/>
			<output>
				<port id="0" precision="FP16"/>
			</output>
		</layer>
		<layer id="246" name="4658466226318" type="Const" version="opset1">
			<data element_type="f16" offset="240" shape="" size="2"/>
			<output>
				<port id="0" precision="FP16"/>
			</output>
		</layer>
		<layer id="247" name="4659466328775" type="Const" version="opset1">
			<data element_type="f16" offset="242" shape="" size="2"/>
			<output>
				<port id="0" precision="FP16"/>
			</output>
		</layer>
		<layer id="248" name="4706471028085" type="Const" version="opset1">
			<data element_type="f16" offset="244" shape="" size="2"/>
			<output>
				<port id="0" precision="FP16"/>
			</output>
		</layer>
		<layer id="249" name="4707471126423" type="Const" version="opset1">
			<data element_type="f16" offset="246" shape="" size="2"/>
			<output>
				<port id="0" precision="FP16"/>
			</output>
		</layer>
		<layer id="250" name="4708471228307" type="Const" version="opset1">
			<data element_type="f16" offset="244" shape="" size="2"/>
			<output>
				<port id="0" precision="FP16"/>
			</output>
		</layer>
		<layer id="251" name="4709471326981" type="Const" version="opset1">
			<data element_type="f16" offset="246" shape="" size="2"/>
			<output>
				<port id="0" precision="FP16"/>
			</output>
		</layer>
		<layer id="252" name="4476448029273" type="Const" version="opset1">
			<data element_type="f16" offset="248" shape="" size="2"/>
			<output>
				<port id="0" precision="FP16"/>
			</output>
		</layer>
		<layer id="253" name="4477448126369" type="Const" version="opset1">
			<data element_type="f16" offset="250" shape="" size="2"/>
			<output>
				<port id="0" precision="FP16"/>
			</output>
		</layer>
		<layer id="254" name="4478448228124" type="Const" version="opset1">
			<data element_type="f16" offset="248" shape="" size="2"/>
			<output>
				<port id="0" precision="FP16"/>
			</output>
		</layer>
		<layer id="255" name="4479448326768" type="Const" version="opset1">
			<data element_type="f16" offset="250" shape="" size="2"/>
			<output>
				<port id="0" precision="FP16"/>
			</output>
		</layer>
		<layer id="256" name="4496450027986" type="Const" version="opset1">
			<data element_type="f16" offset="252" shape="" size="2"/>
			<output>
				<port id="0" precision="FP16"/>
			</output>
		</layer>
		<layer id="257" name="4497450127116" type="Const" version="opset1">
			<data element_type="f16" offset="254" shape="" size="2"/>
			<output>
				<port id="0" precision="FP16"/>
			</output>
		</layer>
		<layer id="258" name="4498450226996" type="Const" version="opset1">
			<data element_type="f16" offset="252" shape="" size="2"/>
			<output>
				<port id="0" precision="FP16"/>
			</output>
		</layer>
		<layer id="259" name="4499450327059" type="Const" version="opset1">
			<data element_type="f16" offset="254" shape="" size="2"/>
			<output>
				<port id="0" precision="FP16"/>
			</output>
		</layer>
		<layer id="260" name="4486449027671" type="Const" version="opset1">
			<data element_type="f16" offset="256" shape="" size="2"/>
			<output>
				<port id="0" precision="FP16"/>
			</output>
		</layer>
		<layer id="261" name="4487449127695" type="Const" version="opset1">
			<data element_type="f16" offset="258" shape="" size="2"/>
			<output>
				<port id="0" precision="FP16"/>
			</output>
		</layer>
		<layer id="262" name="4488449227806" type="Const" version="opset1">
			<data element_type="f16" offset="256" shape="" size="2"/>
			<output>
				<port id="0" precision="FP16"/>
			</output>
		</layer>
		<layer id="263" name="4489449329924" type="Const" version="opset1">
			<data element_type="f16" offset="258" shape="" size="2"/>
			<output>
				<port id="0" precision="FP16"/>
			</output>
		</layer>
		<layer id="264" name="5356536026687" type="Const" version="opset1">
			<data element_type="f16" offset="260" shape="" size="2"/>
			<output>
				<port id="0" precision="FP16"/>
			</output>
		</layer>
		<layer id="265" name="5357536128826" type="Const" version="opset1">
			<data element_type="f16" offset="262" shape="" size="2"/>
			<output>
				<port id="0" precision="FP16"/>
			</output>
		</layer>
		<layer id="266" name="5358536228637" type="Const" version="opset1">
			<data element_type="f16" offset="260" shape="" size="2"/>
			<output>
				<port id="0" precision="FP16"/>
			</output>
		</layer>
		<layer id="267" name="5359536328700" type="Const" version="opset1">
			<data element_type="f16" offset="262" shape="" size="2"/>
			<output>
				<port id="0" precision="FP16"/>
			</output>
		</layer>
		<layer id="268" name="4376438029717" type="Const" version="opset1">
			<data element_type="f16" offset="264" shape="" size="2"/>
			<output>
				<port id="0" precision="FP16"/>
			</output>
		</layer>
		<layer id="269" name="4377438126387" type="Const" version="opset1">
			<data element_type="f16" offset="266" shape="" size="2"/>
			<output>
				<port id="0" precision="FP16"/>
			</output>
		</layer>
		<layer id="270" name="4378438227863" type="Const" version="opset1">
			<data element_type="f16" offset="264" shape="" size="2"/>
			<output>
				<port id="0" precision="FP16"/>
			</output>
		</layer>
		<layer id="271" name="4379438328418" type="Const" version="opset1">
			<data element_type="f16" offset="266" shape="" size="2"/>
			<output>
				<port id="0" precision="FP16"/>
			</output>
		</layer>
		<layer id="272" name="images/reverse_input_channels/Split_input_port_1/value250462857290627734" type="Const" version="opset1">
			<data element_type="i64" offset="268" shape="" size="8"/>
			<output>
				<port id="0" precision="I64"/>
			</output>
		</layer>
		<layer id="273" name="8713871728865" type="Const" version="opset1">
			<data element_type="f16" offset="276" shape="" size="2"/>
			<output>
				<port id="0" precision="FP16"/>
			</output>
		</layer>
		<layer id="274" name="8714871828547" type="Const" version="opset1">
			<data element_type="f16" offset="278" shape="" size="2"/>
			<output>
				<port id="0" precision="FP16"/>
			</output>
		</layer>
		<layer id="275" name="8715871927626" type="Const" version="opset1">
			<data element_type="f16" offset="276" shape="" size="2"/>
			<output>
				<port id="0" precision="FP16"/>
			</output>
		</layer>
		<layer id="276" name="8716872027791" type="Const" version="opset1">
			<data element_type="f16" offset="278" shape="" size="2"/>
			<output>
				<port id="0" precision="FP16"/>
			</output>
		</layer>
		<layer id="277" name="images" type="Parameter" version="opset1">
			<data element_type="f16" shape="1,3,640,640"/>
			<output>
				<port id="0" names="images" precision="FP16">
					<dim>1</dim>
					<dim>3</dim>
					<dim>640</dim>
					<dim>640</dim>
				</port>
			</output>
		</layer>
		<layer id="278" name="images/reverse_input_channels/Split/fq_input_0" type="FakeQuantize" version="opset1">
			<data auto_broadcast="numpy" levels="256"/>
			<input>
				<port id="0">
					<dim>1</dim>
					<dim>3</dim>
					<dim>640</dim>
					<dim>640</dim>
				</port>
				<port id="1"/>
				<port id="2"/>
				<port id="3"/>
				<port id="4"/>
			</input>
			<output>
				<port id="5" precision="FP16">
					<dim>1</dim>
					<dim>3</dim>
					<dim>640</dim>
					<dim>640</dim>
				</port>
			</output>
		</layer>
		<layer id="279" name="images/reverse_input_channels/Split" type="Split" version="opset1">
			<data num_splits="3"/>
			<input>
				<port id="0">
					<dim>1</dim>
					<dim>3</dim>
					<dim>640</dim>
					<dim>640</dim>
				</port>
				<port id="1"/>
			</input>
			<output>
				<port id="2" precision="FP16">
					<dim>1</dim>
					<dim>1</dim>
					<dim>640</dim>
					<dim>640</dim>
				</port>
				<port id="3" precision="FP16">
					<dim>1</dim>
					<dim>1</dim>
					<dim>640</dim>
					<dim>640</dim>
				</port>
				<port id="4" precision="FP16">
					<dim>1</dim>
					<dim>1</dim>
					<dim>640</dim>
					<dim>640</dim>
				</port>
			</output>
		</layer>
		<layer id="280" name="images/reverse_input_channels/Concat" type="Concat" version="opset1">
			<data axis="1"/>
			<input>
				<port id="0">
					<dim>1</dim>
					<dim>1</dim>
					<dim>640</dim>
					<dim>640</dim>
				</port>
				<port id="1">
					<dim>1</dim>
					<dim>1</dim>
					<dim>640</dim>
					<dim>640</dim>
				</port>
				<port id="2">
					<dim>1</dim>
					<dim>1</dim>
					<dim>640</dim>
					<dim>640</dim>
				</port>
			</input>
			<output>
				<port id="3" precision="FP16">
					<dim>1</dim>
					<dim>3</dim>
					<dim>640</dim>
					<dim>640</dim>
				</port>
			</output>
		</layer>
		<layer id="281" name="Slice_34/Concat844027696935" type="Const" version="opset1">
			<data element_type="i64" offset="280" shape="4" size="32"/>
			<output>
				<port id="0" precision="I64">
					<dim>4</dim>
				</port>
			</output>
		</layer>
		<layer id="282" name="Slice_34/Concat8424844128317936" type="Const" version="opset1">
			<data element_type="i64" offset="312" shape="4" size="32"/>
			<output>
				<port id="0" precision="I64">
					<dim>4</dim>
				</port>
			</output>
		</layer>
		<layer id="283" name="Slice_34/Strides844227747937" type="Const" version="opset1">
			<data element_type="i64" offset="344" shape="4" size="32"/>
			<output>
				<port id="0" precision="I64">
					<dim>4</dim>
				</port>
			</output>
		</layer>
		<layer id="284" name="Slice_34" type="StridedSlice" version="opset1">
			<data begin_mask="1,1,0,1" ellipsis_mask="0,0,0,0" end_mask="1,1,0,1" new_axis_mask="0,0,0,0" shrink_axis_mask="0,0,0,0"/>
			<input>
				<port id="0">
					<dim>1</dim>
					<dim>3</dim>
					<dim>640</dim>
					<dim>640</dim>
				</port>
				<port id="1">
					<dim>4</dim>
				</port>
				<port id="2">
					<dim>4</dim>
				</port>
				<port id="3">
					<dim>4</dim>
				</port>
			</input>
			<output>
				<port id="4" names="onnx::Slice_929" precision="FP16">
					<dim>1</dim>
					<dim>3</dim>
					<dim>320</dim>
					<dim>640</dim>
				</port>
			</output>
		</layer>
		<layer id="285" name="Slice_39/Concat848828380939" type="Const" version="opset1">
			<data element_type="i64" offset="376" shape="4" size="32"/>
			<output>
				<port id="0" precision="I64">
					<dim>4</dim>
				</port>
			</output>
		</layer>
		<layer id="286" name="Slice_39/Concat8472848928527940" type="Const" version="opset1">
			<data element_type="i64" offset="408" shape="4" size="32"/>
			<output>
				<port id="0" precision="I64">
					<dim>4</dim>
				</port>
			</output>
		</layer>
		<layer id="287" name="Slice_39/Strides849028002941" type="Const" version="opset1">
			<data element_type="i64" offset="440" shape="4" size="32"/>
			<output>
				<port id="0" precision="I64">
					<dim>4</dim>
				</port>
			</output>
		</layer>
		<layer id="288" name="Slice_39" type="StridedSlice" version="opset1">
			<data begin_mask="1,1,1,0" ellipsis_mask="0,0,0,0" end_mask="1,1,1,0" new_axis_mask="0,0,0,0" shrink_axis_mask="0,0,0,0"/>
			<input>
				<port id="0">
					<dim>1</dim>
					<dim>3</dim>
					<dim>320</dim>
					<dim>640</dim>
				</port>
				<port id="1">
					<dim>4</dim>
				</port>
				<port id="2">
					<dim>4</dim>
				</port>
				<port id="3">
					<dim>4</dim>
				</port>
			</input>
			<output>
				<port id="4" names="onnx::Concat_934" precision="FP16">
					<dim>1</dim>
					<dim>3</dim>
					<dim>320</dim>
					<dim>320</dim>
				</port>
			</output>
		</layer>
		<layer id="289" name="Slice_14/Concat824827930927" type="Const" version="opset1">
			<data element_type="i64" offset="472" shape="4" size="32"/>
			<output>
				<port id="0" precision="I64">
					<dim>4</dim>
				</port>
			</output>
		</layer>
		<layer id="290" name="Slice_14/Concat8232824927987928" type="Const" version="opset1">
			<data element_type="i64" offset="312" shape="4" size="32"/>
			<output>
				<port id="0" precision="I64">
					<dim>4</dim>
				</port>
			</output>
		</layer>
		<layer id="291" name="Slice_14/Strides825028221929" type="Const" version="opset1">
			<data element_type="i64" offset="344" shape="4" size="32"/>
			<output>
				<port id="0" precision="I64">
					<dim>4</dim>
				</port>
			</output>
		</layer>
		<layer id="292" name="Slice_14" type="StridedSlice" version="opset1">
			<data begin_mask="1,1,0,1" ellipsis_mask="0,0,0,0" end_mask="1,1,0,1" new_axis_mask="0,0,0,0" shrink_axis_mask="0,0,0,0"/>
			<input>
				<port id="0">
					<dim>1</dim>
					<dim>3</dim>
					<dim>640</dim>
					<dim>640</dim>
				</port>
				<port id="1">
					<dim>4</dim>
				</port>
				<port id="2">
					<dim>4</dim>
				</port>
				<port id="3">
					<dim>4</dim>
				</port>
			</input>
			<output>
				<port id="4" names="onnx::Slice_909" precision="FP16">
					<dim>1</dim>
					<dim>3</dim>
					<dim>320</dim>
					<dim>640</dim>
				</port>
			</output>
		</layer>
		<layer id="293" name="Slice_19/Concat829628338931" type="Const" version="opset1">
			<data element_type="i64" offset="376" shape="4" size="32"/>
			<output>
				<port id="0" precision="I64">
					<dim>4</dim>
				</port>
			</output>
		</layer>
		<layer id="294" name="Slice_19/Concat8280829728620932" type="Const" version="opset1">
			<data element_type="i64" offset="408" shape="4" size="32"/>
			<output>
				<port id="0" precision="I64">
					<dim>4</dim>
				</port>
			</output>
		</layer>
		<layer id="295" name="Slice_19/Strides829828386933" type="Const" version="opset1">
			<data element_type="i64" offset="440" shape="4" size="32"/>
			<output>
				<port id="0" precision="I64">
					<dim>4</dim>
				</port>
			</output>
		</layer>
		<layer id="296" name="Slice_19" type="StridedSlice" version="opset1">
			<data begin_mask="1,1,1,0" ellipsis_mask="0,0,0,0" end_mask="1,1,1,0" new_axis_mask="0,0,0,0" shrink_axis_mask="0,0,0,0"/>
			<input>
				<port id="0">
					<dim>1</dim>
					<dim>3</dim>
					<dim>320</dim>
					<dim>640</dim>
				</port>
				<port id="1">
					<dim>4</dim>
				</port>
				<port id="2">
					<dim>4</dim>
				</port>
				<port id="3">
					<dim>4</dim>
				</port>
			</input>
			<output>
				<port id="4" names="onnx::Concat_914" precision="FP16">
					<dim>1</dim>
					<dim>3</dim>
					<dim>320</dim>
					<dim>320</dim>
				</port>
			</output>
		</layer>
		<layer id="297" name="Slice_24/Concat834427684919" type="Const" version="opset1">
			<data element_type="i64" offset="280" shape="4" size="32"/>
			<output>
				<port id="0" precision="I64">
					<dim>4</dim>
				</port>
			</output>
		</layer>
		<layer id="298" name="Slice_24/Concat8328834527636920" type="Const" version="opset1">
			<data element_type="i64" offset="312" shape="4" size="32"/>
			<output>
				<port id="0" precision="I64">
					<dim>4</dim>
				</port>
			</output>
		</layer>
		<layer id="299" name="Slice_24/Strides834628407921" type="Const" version="opset1">
			<data element_type="i64" offset="344" shape="4" size="32"/>
			<output>
				<port id="0" precision="I64">
					<dim>4</dim>
				</port>
			</output>
		</layer>
		<layer id="300" name="Slice_24" type="StridedSlice" version="opset1">
			<data begin_mask="1,1,0,1" ellipsis_mask="0,0,0,0" end_mask="1,1,0,1" new_axis_mask="0,0,0,0" shrink_axis_mask="0,0,0,0"/>
			<input>
				<port id="0">
					<dim>1</dim>
					<dim>3</dim>
					<dim>640</dim>
					<dim>640</dim>
				</port>
				<port id="1">
					<dim>4</dim>
				</port>
				<port id="2">
					<dim>4</dim>
				</port>
				<port id="3">
					<dim>4</dim>
				</port>
			</input>
			<output>
				<port id="4" names="onnx::Slice_919" precision="FP16">
					<dim>1</dim>
					<dim>3</dim>
					<dim>320</dim>
					<dim>640</dim>
				</port>
			</output>
		</layer>
		<layer id="301" name="Slice_29/Concat839227642923" type="Const" version="opset1">
			<data element_type="i64" offset="472" shape="4" size="32"/>
			<output>
				<port id="0" precision="I64">
					<dim>4</dim>
				</port>
			</output>
		</layer>
		<layer id="302" name="Slice_29/Concat8376839328509924" type="Const" version="opset1">
			<data element_type="i64" offset="408" shape="4" size="32"/>
			<output>
				<port id="0" precision="I64">
					<dim>4</dim>
				</port>
			</output>
		</layer>
		<layer id="303" name="Slice_29/Strides839427891925" type="Const" version="opset1">
			<data element_type="i64" offset="440" shape="4" size="32"/>
			<output>
				<port id="0" precision="I64">
					<dim>4</dim>
				</port>
			</output>
		</layer>
		<layer id="304" name="Slice_29" type="StridedSlice" version="opset1">
			<data begin_mask="1,1,1,0" ellipsis_mask="0,0,0,0" end_mask="1,1,1,0" new_axis_mask="0,0,0,0" shrink_axis_mask="0,0,0,0"/>
			<input>
				<port id="0">
					<dim>1</dim>
					<dim>3</dim>
					<dim>320</dim>
					<dim>640</dim>
				</port>
				<port id="1">
					<dim>4</dim>
				</port>
				<port id="2">
					<dim>4</dim>
				</port>
				<port id="3">
					<dim>4</dim>
				</port>
			</input>
			<output>
				<port id="4" names="onnx::Concat_924" precision="FP16">
					<dim>1</dim>
					<dim>3</dim>
					<dim>320</dim>
					<dim>320</dim>
				</port>
			</output>
		</layer>
		<layer id="305" name="Slice_4/Concat815228329911" type="Const" version="opset1">
			<data element_type="i64" offset="472" shape="4" size="32"/>
			<output>
				<port id="0" precision="I64">
					<dim>4</dim>
				</port>
			</output>
		</layer>
		<layer id="306" name="Slice_4/Concat8136815327783912" type="Const" version="opset1">
			<data element_type="i64" offset="312" shape="4" size="32"/>
			<output>
				<port id="0" precision="I64">
					<dim>4</dim>
				</port>
			</output>
		</layer>
		<layer id="307" name="Slice_4/Strides815428635913" type="Const" version="opset1">
			<data element_type="i64" offset="344" shape="4" size="32"/>
			<output>
				<port id="0" precision="I64">
					<dim>4</dim>
				</port>
			</output>
		</layer>
		<layer id="308" name="Slice_4" type="StridedSlice" version="opset1">
			<data begin_mask="1,1,0,1" ellipsis_mask="0,0,0,0" end_mask="1,1,0,1" new_axis_mask="0,0,0,0" shrink_axis_mask="0,0,0,0"/>
			<input>
				<port id="0">
					<dim>1</dim>
					<dim>3</dim>
					<dim>640</dim>
					<dim>640</dim>
				</port>
				<port id="1">
					<dim>4</dim>
				</port>
				<port id="2">
					<dim>4</dim>
				</port>
				<port id="3">
					<dim>4</dim>
				</port>
			</input>
			<output>
				<port id="4" names="onnx::Slice_899" precision="FP16">
					<dim>1</dim>
					<dim>3</dim>
					<dim>320</dim>
					<dim>640</dim>
				</port>
			</output>
		</layer>
		<layer id="309" name="Slice_9/Concat820028032915" type="Const" version="opset1">
			<data element_type="i64" offset="472" shape="4" size="32"/>
			<output>
				<port id="0" precision="I64">
					<dim>4</dim>
				</port>
			</output>
		</layer>
		<layer id="310" name="Slice_9/Concat8184820128497916" type="Const" version="opset1">
			<data element_type="i64" offset="408" shape="4" size="32"/>
			<output>
				<port id="0" precision="I64">
					<dim>4</dim>
				</port>
			</output>
		</layer>
		<layer id="311" name="Slice_9/Strides820228452917" type="Const" version="opset1">
			<data element_type="i64" offset="440" shape="4" size="32"/>
			<output>
				<port id="0" precision="I64">
					<dim>4</dim>
				</port>
			</output>
		</layer>
		<layer id="312" name="Slice_9" type="StridedSlice" version="opset1">
			<data begin_mask="1,1,1,0" ellipsis_mask="0,0,0,0" end_mask="1,1,1,0" new_axis_mask="0,0,0,0" shrink_axis_mask="0,0,0,0"/>
			<input>
				<port id="0">
					<dim>1</dim>
					<dim>3</dim>
					<dim>320</dim>
					<dim>640</dim>
				</port>
				<port id="1">
					<dim>4</dim>
				</port>
				<port id="2">
					<dim>4</dim>
				</port>
				<port id="3">
					<dim>4</dim>
				</port>
			</input>
			<output>
				<port id="4" names="onnx::Concat_904" precision="FP16">
					<dim>1</dim>
					<dim>3</dim>
					<dim>320</dim>
					<dim>320</dim>
				</port>
			</output>
		</layer>
		<layer id="313" name="Concat_40" type="Concat" version="opset1">
			<data axis="1"/>
			<input>
				<port id="0">
					<dim>1</dim>
					<dim>3</dim>
					<dim>320</dim>
					<dim>320</dim>
				</port>
				<port id="1">
					<dim>1</dim>
					<dim>3</dim>
					<dim>320</dim>
					<dim>320</dim>
				</port>
				<port id="2">
					<dim>1</dim>
					<dim>3</dim>
					<dim>320</dim>
					<dim>320</dim>
				</port>
				<port id="3">
					<dim>1</dim>
					<dim>3</dim>
					<dim>320</dim>
					<dim>320</dim>
				</port>
			</input>
			<output>
				<port id="4" names="input" precision="FP16">
					<dim>1</dim>
					<dim>12</dim>
					<dim>320</dim>
					<dim>320</dim>
				</port>
			</output>
		</layer>
		<layer id="314" name="onnx::Conv_161794414194/quantized1975929759" type="Const" version="opset1">
			<data element_type="i8" offset="504" shape="80,12,3,3" size="8640"/>
			<output>
				<port id="0" precision="I8">
					<dim>80</dim>
					<dim>12</dim>
					<dim>3</dim>
					<dim>3</dim>
				</port>
			</output>
		</layer>
		<layer id="315" name="onnx::Conv_161794414194/quantized/to_f16" type="Convert" version="opset1">
			<data destination_type="f16"/>
			<input>
				<port id="0">
					<dim>80</dim>
					<dim>12</dim>
					<dim>3</dim>
					<dim>3</dim>
				</port>
			</input>
			<output>
				<port id="1" precision="FP16">
					<dim>80</dim>
					<dim>12</dim>
					<dim>3</dim>
					<dim>3</dim>
				</port>
			</output>
		</layer>
		<layer id="316" name="Conv_41/WithoutBiases/fq_weights_1/zero_point1977827797" type="Const" version="opset1">
			<data element_type="f16" offset="9144" shape="80,1,1,1" size="160"/>
			<output>
				<port id="0" precision="FP16">
					<dim>80</dim>
					<dim>1</dim>
					<dim>1</dim>
					<dim>1</dim>
				</port>
			</output>
		</layer>
		<layer id="317" name="Conv_41/WithoutBiases/fq_weights_1/minus_zp" type="Subtract" version="opset1">
			<data auto_broadcast="numpy"/>
			<input>
				<port id="0">
					<dim>80</dim>
					<dim>12</dim>
					<dim>3</dim>
					<dim>3</dim>
				</port>
				<port id="1">
					<dim>80</dim>
					<dim>1</dim>
					<dim>1</dim>
					<dim>1</dim>
				</port>
			</input>
			<output>
				<port id="2" precision="FP16">
					<dim>80</dim>
					<dim>12</dim>
					<dim>3</dim>
					<dim>3</dim>
				</port>
			</output>
		</layer>
		<layer id="318" name="Conv_41/WithoutBiases/fq_weights_1/scale1976726798" type="Const" version="opset1">
			<data element_type="f16" offset="9304" shape="80,1,1,1" size="160"/>
			<output>
				<port id="0" precision="FP16">
					<dim>80</dim>
					<dim>1</dim>
					<dim>1</dim>
					<dim>1</dim>
				</port>
			</output>
		</layer>
		<layer id="319" name="Conv_41/WithoutBiases/fq_weights_1/mulpiply_by_scale" type="Multiply" version="opset1">
			<data auto_broadcast="numpy"/>
			<input>
				<port id="0">
					<dim>80</dim>
					<dim>12</dim>
					<dim>3</dim>
					<dim>3</dim>
				</port>
				<port id="1">
					<dim>80</dim>
					<dim>1</dim>
					<dim>1</dim>
					<dim>1</dim>
				</port>
			</input>
			<output>
				<port id="2" precision="FP16">
					<dim>80</dim>
					<dim>12</dim>
					<dim>3</dim>
					<dim>3</dim>
				</port>
			</output>
		</layer>
		<layer id="320" name="Conv_41/WithoutBiases" type="Convolution" version="opset1">
			<data auto_pad="explicit" dilations="1,1" pads_begin="1,1" pads_end="1,1" strides="1,1"/>
			<input>
				<port id="0">
					<dim>1</dim>
					<dim>12</dim>
					<dim>320</dim>
					<dim>320</dim>
				</port>
				<port id="1">
					<dim>80</dim>
					<dim>12</dim>
					<dim>3</dim>
					<dim>3</dim>
				</port>
			</input>
			<output>
				<port id="2" precision="FP16">
					<dim>1</dim>
					<dim>80</dim>
					<dim>320</dim>
					<dim>320</dim>
				</port>
			</output>
		</layer>
		<layer id="321" name="Conv_41/Dims744594628994" type="Const" version="opset1">
			<data element_type="f16" offset="9464" shape="1,80,1,1" size="160"/>
			<output>
				<port id="0" precision="FP16">
					<dim>1</dim>
					<dim>80</dim>
					<dim>1</dim>
					<dim>1</dim>
				</port>
			</output>
		</layer>
		<layer id="322" name="Conv_41" type="Add" version="opset1">
			<data auto_broadcast="numpy"/>
			<input>
				<port id="0">
					<dim>1</dim>
					<dim>80</dim>
					<dim>320</dim>
					<dim>320</dim>
				</port>
				<port id="1">
					<dim>1</dim>
					<dim>80</dim>
					<dim>1</dim>
					<dim>1</dim>
				</port>
			</input>
			<output>
				<port id="2" names="onnx::Sigmoid_1616" precision="FP16">
					<dim>1</dim>
					<dim>80</dim>
					<dim>320</dim>
					<dim>320</dim>
				</port>
			</output>
		</layer>
		<layer id="323" name="Mul_43" type="Swish" version="opset4">
			<input>
				<port id="0">
					<dim>1</dim>
					<dim>80</dim>
					<dim>320</dim>
					<dim>320</dim>
				</port>
			</input>
			<output>
				<port id="1" names="input.7" precision="FP16">
					<dim>1</dim>
					<dim>80</dim>
					<dim>320</dim>
					<dim>320</dim>
				</port>
			</output>
		</layer>
		<layer id="324" name="Conv_44/WithoutBiases/fq_input_0" type="FakeQuantize" version="opset1">
			<data auto_broadcast="numpy" levels="256"/>
			<input>
				<port id="0">
					<dim>1</dim>
					<dim>80</dim>
					<dim>320</dim>
					<dim>320</dim>
				</port>
				<port id="1"/>
				<port id="2"/>
				<port id="3"/>
				<port id="4"/>
			</input>
			<output>
				<port id="5" precision="FP16">
					<dim>1</dim>
					<dim>80</dim>
					<dim>320</dim>
					<dim>320</dim>
				</port>
			</output>
		</layer>
		<layer id="325" name="onnx::Conv_162094914196/quantized1858926273" type="Const" version="opset1">
			<data element_type="i8" offset="9624" shape="160,80,3,3" size="115200"/>
			<output>
				<port id="0" precision="I8">
					<dim>160</dim>
					<dim>80</dim>
					<dim>3</dim>
					<dim>3</dim>
				</port>
			</output>
		</layer>
		<layer id="326" name="onnx::Conv_162094914196/quantized/to_f16" type="Convert" version="opset1">
			<data destination_type="f16"/>
			<input>
				<port id="0">
					<dim>160</dim>
					<dim>80</dim>
					<dim>3</dim>
					<dim>3</dim>
				</port>
			</input>
			<output>
				<port id="1" precision="FP16">
					<dim>160</dim>
					<dim>80</dim>
					<dim>3</dim>
					<dim>3</dim>
				</port>
			</output>
		</layer>
		<layer id="327" name="Conv_44/WithoutBiases/fq_weights_1/zero_point1860829207" type="Const" version="opset1">
			<data element_type="f16" offset="124824" shape="160,1,1,1" size="320"/>
			<output>
				<port id="0" precision="FP16">
					<dim>160</dim>
					<dim>1</dim>
					<dim>1</dim>
					<dim>1</dim>
				</port>
			</output>
		</layer>
		<layer id="328" name="Conv_44/WithoutBiases/fq_weights_1/minus_zp" type="Subtract" version="opset1">
			<data auto_broadcast="numpy"/>
			<input>
				<port id="0">
					<dim>160</dim>
					<dim>80</dim>
					<dim>3</dim>
					<dim>3</dim>
				</port>
				<port id="1">
					<dim>160</dim>
					<dim>1</dim>
					<dim>1</dim>
					<dim>1</dim>
				</port>
			</input>
			<output>
				<port id="2" precision="FP16">
					<dim>160</dim>
					<dim>80</dim>
					<dim>3</dim>
					<dim>3</dim>
				</port>
			</output>
		</layer>
		<layer id="329" name="Conv_44/WithoutBiases/fq_weights_1/scale1859728385" type="Const" version="opset1">
			<data element_type="f16" offset="125144" shape="160,1,1,1" size="320"/>
			<output>
				<port id="0" precision="FP16">
					<dim>160</dim>
					<dim>1</dim>
					<dim>1</dim>
					<dim>1</dim>
				</port>
			</output>
		</layer>
		<layer id="330" name="Conv_44/WithoutBiases/fq_weights_1/mulpiply_by_scale" type="Multiply" version="opset1">
			<data auto_broadcast="numpy"/>
			<input>
				<port id="0">
					<dim>160</dim>
					<dim>80</dim>
					<dim>3</dim>
					<dim>3</dim>
				</port>
				<port id="1">
					<dim>160</dim>
					<dim>1</dim>
					<dim>1</dim>
					<dim>1</dim>
				</port>
			</input>
			<output>
				<port id="2" precision="FP16">
					<dim>160</dim>
					<dim>80</dim>
					<dim>3</dim>
					<dim>3</dim>
				</port>
			</output>
		</layer>
		<layer id="331" name="Conv_44/WithoutBiases" type="Convolution" version="opset1">
			<data auto_pad="explicit" dilations="1,1" pads_begin="1,1" pads_end="1,1" strides="2,2"/>
			<input>
				<port id="0">
					<dim>1</dim>
					<dim>80</dim>
					<dim>320</dim>
					<dim>320</dim>
				</port>
				<port id="1">
					<dim>160</dim>
					<dim>80</dim>
					<dim>3</dim>
					<dim>3</dim>
				</port>
			</input>
			<output>
				<port id="2" precision="FP16">
					<dim>1</dim>
					<dim>160</dim>
					<dim>160</dim>
					<dim>160</dim>
				</port>
			</output>
		</layer>
		<layer id="332" name="Conv_44/Dims686395130032" type="Const" version="opset1">
			<data element_type="f16" offset="125464" shape="1,160,1,1" size="320"/>
			<output>
				<port id="0" precision="FP16">
					<dim>1</dim>
					<dim>160</dim>
					<dim>1</dim>
					<dim>1</dim>
				</port>
			</output>
		</layer>
		<layer id="333" name="Conv_44" type="Add" version="opset1">
			<data auto_broadcast="numpy"/>
			<input>
				<port id="0">
					<dim>1</dim>
					<dim>160</dim>
					<dim>160</dim>
					<dim>160</dim>
				</port>
				<port id="1">
					<dim>1</dim>
					<dim>160</dim>
					<dim>1</dim>
					<dim>1</dim>
				</port>
			</input>
			<output>
				<port id="2" names="onnx::Sigmoid_1619" precision="FP16">
					<dim>1</dim>
					<dim>160</dim>
					<dim>160</dim>
					<dim>160</dim>
				</port>
			</output>
		</layer>
		<layer id="334" name="Mul_46" type="Swish" version="opset4">
			<input>
				<port id="0">
					<dim>1</dim>
					<dim>160</dim>
					<dim>160</dim>
					<dim>160</dim>
				</port>
			</input>
			<output>
				<port id="1" names="input.15" precision="FP16">
					<dim>1</dim>
					<dim>160</dim>
					<dim>160</dim>
					<dim>160</dim>
				</port>
			</output>
		</layer>
		<layer id="335" name="Conv_47/WithoutBiases/fq_input_0" type="FakeQuantize" version="opset1">
			<data auto_broadcast="numpy" levels="256"/>
			<input>
				<port id="0">
					<dim>1</dim>
					<dim>160</dim>
					<dim>160</dim>
					<dim>160</dim>
				</port>
				<port id="1"/>
				<port id="2"/>
				<port id="3"/>
				<port id="4"/>
			</input>
			<output>
				<port id="5" precision="FP16">
					<dim>1</dim>
					<dim>160</dim>
					<dim>160</dim>
					<dim>160</dim>
				</port>
			</output>
		</layer>
		<layer id="336" name="onnx::Conv_162395414198/quantized1903929807" type="Const" version="opset1">
			<data element_type="i8" offset="125784" shape="80,160,1,1" size="12800"/>
			<output>
				<port id="0" precision="I8">
					<dim>80</dim>
					<dim>160</dim>
					<dim>1</dim>
					<dim>1</dim>
				</port>
			</output>
		</layer>
		<layer id="337" name="onnx::Conv_162395414198/quantized/to_f16" type="Convert" version="opset1">
			<data destination_type="f16"/>
			<input>
				<port id="0">
					<dim>80</dim>
					<dim>160</dim>
					<dim>1</dim>
					<dim>1</dim>
				</port>
			</input>
			<output>
				<port id="1" precision="FP16">
					<dim>80</dim>
					<dim>160</dim>
					<dim>1</dim>
					<dim>1</dim>
				</port>
			</output>
		</layer>
		<layer id="338" name="Conv_47/WithoutBiases/fq_weights_1/zero_point1905827029" type="Const" version="opset1">
			<data element_type="f16" offset="138584" shape="80,1,1,1" size="160"/>
			<output>
				<port id="0" precision="FP16">
					<dim>80</dim>
					<dim>1</dim>
					<dim>1</dim>
					<dim>1</dim>
				</port>
			</output>
		</layer>
		<layer id="339" name="Conv_47/WithoutBiases/fq_weights_1/minus_zp" type="Subtract" version="opset1">
			<data auto_broadcast="numpy"/>
			<input>
				<port id="0">
					<dim>80</dim>
					<dim>160</dim>
					<dim>1</dim>
					<dim>1</dim>
				</port>
				<port id="1">
					<dim>80</dim>
					<dim>1</dim>
					<dim>1</dim>
					<dim>1</dim>
				</port>
			</input>
			<output>
				<port id="2" precision="FP16">
					<dim>80</dim>
					<dim>160</dim>
					<dim>1</dim>
					<dim>1</dim>
				</port>
			</output>
		</layer>
		<layer id="340" name="Conv_47/WithoutBiases/fq_weights_1/scale1904727470" type="Const" version="opset1">
			<data element_type="f16" offset="138744" shape="80,1,1,1" size="160"/>
			<output>
				<port id="0" precision="FP16">
					<dim>80</dim>
					<dim>1</dim>
					<dim>1</dim>
					<dim>1</dim>
				</port>
			</output>
		</layer>
		<layer id="341" name="Conv_47/WithoutBiases/fq_weights_1/mulpiply_by_scale" type="Multiply" version="opset1">
			<data auto_broadcast="numpy"/>
			<input>
				<port id="0">
					<dim>80</dim>
					<dim>160</dim>
					<dim>1</dim>
					<dim>1</dim>
				</port>
				<port id="1">
					<dim>80</dim>
					<dim>1</dim>
					<dim>1</dim>
					<dim>1</dim>
				</port>
			</input>
			<output>
				<port id="2" precision="FP16">
					<dim>80</dim>
					<dim>160</dim>
					<dim>1</dim>
					<dim>1</dim>
				</port>
			</output>
		</layer>
		<layer id="342" name="Conv_47/WithoutBiases" type="Convolution" version="opset1">
			<data auto_pad="explicit" dilations="1,1" pads_begin="0,0" pads_end="0,0" strides="1,1"/>
			<input>
				<port id="0">
					<dim>1</dim>
					<dim>160</dim>
					<dim>160</dim>
					<dim>160</dim>
				</port>
				<port id="1">
					<dim>80</dim>
					<dim>160</dim>
					<dim>1</dim>
					<dim>1</dim>
				</port>
			</input>
			<output>
				<port id="2" precision="FP16">
					<dim>1</dim>
					<dim>80</dim>
					<dim>160</dim>
					<dim>160</dim>
				</port>
			</output>
		</layer>
		<layer id="343" name="Conv_47/Dims706795630056" type="Const" version="opset1">
			<data element_type="f16" offset="138904" shape="1,80,1,1" size="160"/>
			<output>
				<port id="0" precision="FP16">
					<dim>1</dim>
					<dim>80</dim>
					<dim>1</dim>
					<dim>1</dim>
				</port>
			</output>
		</layer>
		<layer id="344" name="Conv_47" type="Add" version="opset1">
			<data auto_broadcast="numpy"/>
			<input>
				<port id="0">
					<dim>1</dim>
					<dim>80</dim>
					<dim>160</dim>
					<dim>160</dim>
				</port>
				<port id="1">
					<dim>1</dim>
					<dim>80</dim>
					<dim>1</dim>
					<dim>1</dim>
				</port>
			</input>
			<output>
				<port id="2" names="onnx::Sigmoid_1622" precision="FP16">
					<dim>1</dim>
					<dim>80</dim>
					<dim>160</dim>
					<dim>160</dim>
				</port>
			</output>
		</layer>
		<layer id="345" name="Mul_49" type="Swish" version="opset4">
			<input>
				<port id="0">
					<dim>1</dim>
					<dim>80</dim>
					<dim>160</dim>
					<dim>160</dim>
				</port>
			</input>
			<output>
				<port id="1" names="input.23" precision="FP16">
					<dim>1</dim>
					<dim>80</dim>
					<dim>160</dim>
					<dim>160</dim>
				</port>
			</output>
		</layer>
		<layer id="346" name="Add_59/fq_input_1" type="FakeQuantize" version="opset1">
			<data auto_broadcast="numpy" levels="256"/>
			<input>
				<port id="0">
					<dim>1</dim>
					<dim>80</dim>
					<dim>160</dim>
					<dim>160</dim>
				</port>
				<port id="1"/>
				<port id="2"/>
				<port id="3"/>
				<port id="4"/>
			</input>
			<output>
				<port id="5" precision="FP16">
					<dim>1</dim>
					<dim>80</dim>
					<dim>160</dim>
					<dim>160</dim>
				</port>
			</output>
		</layer>
		<layer id="347" name="onnx::Conv_162995914200/quantized1687928901" type="Const" version="opset1">
			<data element_type="i8" offset="139064" shape="80,80,1,1" size="6400"/>
			<output>
				<port id="0" precision="I8">
					<dim>80</dim>
					<dim>80</dim>
					<dim>1</dim>
					<dim>1</dim>
				</port>
			</output>
		</layer>
		<layer id="348" name="onnx::Conv_162995914200/quantized/to_f16" type="Convert" version="opset1">
			<data destination_type="f16"/>
			<input>
				<port id="0">
					<dim>80</dim>
					<dim>80</dim>
					<dim>1</dim>
					<dim>1</dim>
				</port>
			</input>
			<output>
				<port id="1" precision="FP16">
					<dim>80</dim>
					<dim>80</dim>
					<dim>1</dim>
					<dim>1</dim>
				</port>
			</output>
		</layer>
		<layer id="349" name="Conv_53/WithoutBiases/fq_weights_1/zero_point1689827188" type="Const" version="opset1">
			<data element_type="f16" offset="145464" shape="80,1,1,1" size="160"/>
			<output>
				<port id="0" precision="FP16">
					<dim>80</dim>
					<dim>1</dim>
					<dim>1</dim>
					<dim>1</dim>
				</port>
			</output>
		</layer>
		<layer id="350" name="Conv_53/WithoutBiases/fq_weights_1/minus_zp" type="Subtract" version="opset1">
			<data auto_broadcast="numpy"/>
			<input>
				<port id="0">
					<dim>80</dim>
					<dim>80</dim>
					<dim>1</dim>
					<dim>1</dim>
				</port>
				<port id="1">
					<dim>80</dim>
					<dim>1</dim>
					<dim>1</dim>
					<dim>1</dim>
				</port>
			</input>
			<output>
				<port id="2" precision="FP16">
					<dim>80</dim>
					<dim>80</dim>
					<dim>1</dim>
					<dim>1</dim>
				</port>
			</output>
		</layer>
		<layer id="351" name="Conv_53/WithoutBiases/fq_weights_1/scale1688726498" type="Const" version="opset1">
			<data element_type="f16" offset="145624" shape="80,1,1,1" size="160"/>
			<output>
				<port id="0" precision="FP16">
					<dim>80</dim>
					<dim>1</dim>
					<dim>1</dim>
					<dim>1</dim>
				</port>
			</output>
		</layer>
		<layer id="352" name="Conv_53/WithoutBiases/fq_weights_1/mulpiply_by_scale" type="Multiply" version="opset1">
			<data auto_broadcast="numpy"/>
			<input>
				<port id="0">
					<dim>80</dim>
					<dim>80</dim>
					<dim>1</dim>
					<dim>1</dim>
				</port>
				<port id="1">
					<dim>80</dim>
					<dim>1</dim>
					<dim>1</dim>
					<dim>1</dim>
				</port>
			</input>
			<output>
				<port id="2" precision="FP16">
					<dim>80</dim>
					<dim>80</dim>
					<dim>1</dim>
					<dim>1</dim>
				</port>
			</output>
		</layer>
		<layer id="353" name="Conv_53/WithoutBiases" type="Convolution" version="opset1">
			<data auto_pad="explicit" dilations="1,1" pads_begin="0,0" pads_end="0,0" strides="1,1"/>
			<input>
				<port id="0">
					<dim>1</dim>
					<dim>80</dim>
					<dim>160</dim>
					<dim>160</dim>
				</port>
				<port id="1">
					<dim>80</dim>
					<dim>80</dim>
					<dim>1</dim>
					<dim>1</dim>
				</port>
			</input>
			<output>
				<port id="2" precision="FP16">
					<dim>1</dim>
					<dim>80</dim>
					<dim>160</dim>
					<dim>160</dim>
				</port>
			</output>
		</layer>
		<layer id="354" name="Conv_53/Dims769196128028" type="Const" version="opset1">
			<data element_type="f16" offset="145784" shape="1,80,1,1" size="160"/>
			<output>
				<port id="0" precision="FP16">
					<dim>1</dim>
					<dim>80</dim>
					<dim>1</dim>
					<dim>1</dim>
				</port>
			</output>
		</layer>
		<layer id="355" name="Conv_53" type="Add" version="opset1">
			<data auto_broadcast="numpy"/>
			<input>
				<port id="0">
					<dim>1</dim>
					<dim>80</dim>
					<dim>160</dim>
					<dim>160</dim>
				</port>
				<port id="1">
					<dim>1</dim>
					<dim>80</dim>
					<dim>1</dim>
					<dim>1</dim>
				</port>
			</input>
			<output>
				<port id="2" names="onnx::Sigmoid_1628" precision="FP16">
					<dim>1</dim>
					<dim>80</dim>
					<dim>160</dim>
					<dim>160</dim>
				</port>
			</output>
		</layer>
		<layer id="356" name="Mul_55" type="Swish" version="opset4">
			<input>
				<port id="0">
					<dim>1</dim>
					<dim>80</dim>
					<dim>160</dim>
					<dim>160</dim>
				</port>
			</input>
			<output>
				<port id="1" names="input.35" precision="FP16">
					<dim>1</dim>
					<dim>80</dim>
					<dim>160</dim>
					<dim>160</dim>
				</port>
			</output>
		</layer>
		<layer id="357" name="Conv_56/WithoutBiases/fq_input_0" type="FakeQuantize" version="opset1">
			<data auto_broadcast="numpy" levels="256"/>
			<input>
				<port id="0">
					<dim>1</dim>
					<dim>80</dim>
					<dim>160</dim>
					<dim>160</dim>
				</port>
				<port id="1"/>
				<port id="2"/>
				<port id="3"/>
				<port id="4"/>
			</input>
			<output>
				<port id="5" precision="FP16">
					<dim>1</dim>
					<dim>80</dim>
					<dim>160</dim>
					<dim>160</dim>
				</port>
			</output>
		</layer>
		<layer id="358" name="onnx::Conv_163296414202/quantized1840926276" type="Const" version="opset1">
			<data element_type="i8" offset="145944" shape="80,80,3,3" size="57600"/>
			<output>
				<port id="0" precision="I8">
					<dim>80</dim>
					<dim>80</dim>
					<dim>3</dim>
					<dim>3</dim>
				</port>
			</output>
		</layer>
		<layer id="359" name="onnx::Conv_163296414202/quantized/to_f16" type="Convert" version="opset1">
			<data destination_type="f16"/>
			<input>
				<port id="0">
					<dim>80</dim>
					<dim>80</dim>
					<dim>3</dim>
					<dim>3</dim>
				</port>
			</input>
			<output>
				<port id="1" precision="FP16">
					<dim>80</dim>
					<dim>80</dim>
					<dim>3</dim>
					<dim>3</dim>
				</port>
			</output>
		</layer>
		<layer id="360" name="Conv_56/WithoutBiases/fq_weights_1/zero_point1842829507" type="Const" version="opset1">
			<data element_type="f16" offset="203544" shape="80,1,1,1" size="160"/>
			<output>
				<port id="0" precision="FP16">
					<dim>80</dim>
					<dim>1</dim>
					<dim>1</dim>
					<dim>1</dim>
				</port>
			</output>
		</layer>
		<layer id="361" name="Conv_56/WithoutBiases/fq_weights_1/minus_zp" type="Subtract" version="opset1">
			<data auto_broadcast="numpy"/>
			<input>
				<port id="0">
					<dim>80</dim>
					<dim>80</dim>
					<dim>3</dim>
					<dim>3</dim>
				</port>
				<port id="1">
					<dim>80</dim>
					<dim>1</dim>
					<dim>1</dim>
					<dim>1</dim>
				</port>
			</input>
			<output>
				<port id="2" precision="FP16">
					<dim>80</dim>
					<dim>80</dim>
					<dim>3</dim>
					<dim>3</dim>
				</port>
			</output>
		</layer>
		<layer id="362" name="Conv_56/WithoutBiases/fq_weights_1/scale1841728256" type="Const" version="opset1">
			<data element_type="f16" offset="203704" shape="80,1,1,1" size="160"/>
			<output>
				<port id="0" precision="FP16">
					<dim>80</dim>
					<dim>1</dim>
					<dim>1</dim>
					<dim>1</dim>
				</port>
			</output>
		</layer>
		<layer id="363" name="Conv_56/WithoutBiases/fq_weights_1/mulpiply_by_scale" type="Multiply" version="opset1">
			<data auto_broadcast="numpy"/>
			<input>
				<port id="0">
					<dim>80</dim>
					<dim>80</dim>
					<dim>3</dim>
					<dim>3</dim>
				</port>
				<port id="1">
					<dim>80</dim>
					<dim>1</dim>
					<dim>1</dim>
					<dim>1</dim>
				</port>
			</input>
			<output>
				<port id="2" precision="FP16">
					<dim>80</dim>
					<dim>80</dim>
					<dim>3</dim>
					<dim>3</dim>
				</port>
			</output>
		</layer>
		<layer id="364" name="Conv_56/WithoutBiases" type="Convolution" version="opset1">
			<data auto_pad="explicit" dilations="1,1" pads_begin="1,1" pads_end="1,1" strides="1,1"/>
			<input>
				<port id="0">
					<dim>1</dim>
					<dim>80</dim>
					<dim>160</dim>
					<dim>160</dim>
				</port>
				<port id="1">
					<dim>80</dim>
					<dim>80</dim>
					<dim>3</dim>
					<dim>3</dim>
				</port>
			</input>
			<output>
				<port id="2" precision="FP16">
					<dim>1</dim>
					<dim>80</dim>
					<dim>160</dim>
					<dim>160</dim>
				</port>
			</output>
		</layer>
		<layer id="365" name="Conv_56/Dims725396627410" type="Const" version="opset1">
			<data element_type="f16" offset="203864" shape="1,80,1,1" size="160"/>
			<output>
				<port id="0" precision="FP16">
					<dim>1</dim>
					<dim>80</dim>
					<dim>1</dim>
					<dim>1</dim>
				</port>
			</output>
		</layer>
		<layer id="366" name="Conv_56" type="Add" version="opset1">
			<data auto_broadcast="numpy"/>
			<input>
				<port id="0">
					<dim>1</dim>
					<dim>80</dim>
					<dim>160</dim>
					<dim>160</dim>
				</port>
				<port id="1">
					<dim>1</dim>
					<dim>80</dim>
					<dim>1</dim>
					<dim>1</dim>
				</port>
			</input>
			<output>
				<port id="2" names="onnx::Sigmoid_1631" precision="FP16">
					<dim>1</dim>
					<dim>80</dim>
					<dim>160</dim>
					<dim>160</dim>
				</port>
			</output>
		</layer>
		<layer id="367" name="Mul_58" type="Swish" version="opset4">
			<input>
				<port id="0">
					<dim>1</dim>
					<dim>80</dim>
					<dim>160</dim>
					<dim>160</dim>
				</port>
			</input>
			<output>
				<port id="1" names="onnx::Add_959" precision="FP16">
					<dim>1</dim>
					<dim>80</dim>
					<dim>160</dim>
					<dim>160</dim>
				</port>
			</output>
		</layer>
		<layer id="368" name="Add_59/fq_input_0" type="FakeQuantize" version="opset1">
			<data auto_broadcast="numpy" levels="256"/>
			<input>
				<port id="0">
					<dim>1</dim>
					<dim>80</dim>
					<dim>160</dim>
					<dim>160</dim>
				</port>
				<port id="1"/>
				<port id="2"/>
				<port id="3"/>
				<port id="4"/>
			</input>
			<output>
				<port id="5" precision="FP16">
					<dim>1</dim>
					<dim>80</dim>
					<dim>160</dim>
					<dim>160</dim>
				</port>
			</output>
		</layer>
		<layer id="369" name="Add_59" type="Add" version="opset1">
			<data auto_broadcast="numpy"/>
			<input>
				<port id="0">
					<dim>1</dim>
					<dim>80</dim>
					<dim>160</dim>
					<dim>160</dim>
				</port>
				<port id="1">
					<dim>1</dim>
					<dim>80</dim>
					<dim>160</dim>
					<dim>160</dim>
				</port>
			</input>
			<output>
				<port id="2" names="input.43" precision="FP16">
					<dim>1</dim>
					<dim>80</dim>
					<dim>160</dim>
					<dim>160</dim>
				</port>
			</output>
		</layer>
		<layer id="370" name="Add_66/fq_input_1" type="FakeQuantize" version="opset1">
			<data auto_broadcast="numpy" levels="256"/>
			<input>
				<port id="0">
					<dim>1</dim>
					<dim>80</dim>
					<dim>160</dim>
					<dim>160</dim>
				</port>
				<port id="1"/>
				<port id="2"/>
				<port id="3"/>
				<port id="4"/>
			</input>
			<output>
				<port id="5" precision="FP16">
					<dim>1</dim>
					<dim>80</dim>
					<dim>160</dim>
					<dim>160</dim>
				</port>
			</output>
		</layer>
		<layer id="371" name="onnx::Conv_163597014204/quantized1612927383" type="Const" version="opset1">
			<data element_type="i8" offset="204024" shape="80,80,1,1" size="6400"/>
			<output>
				<port id="0" precision="I8">
					<dim>80</dim>
					<dim>80</dim>
					<dim>1</dim>
					<dim>1</dim>
				</port>
			</output>
		</layer>
		<layer id="372" name="onnx::Conv_163597014204/quantized/to_f16" type="Convert" version="opset1">
			<data destination_type="f16"/>
			<input>
				<port id="0">
					<dim>80</dim>
					<dim>80</dim>
					<dim>1</dim>
					<dim>1</dim>
				</port>
			</input>
			<output>
				<port id="1" precision="FP16">
					<dim>80</dim>
					<dim>80</dim>
					<dim>1</dim>
					<dim>1</dim>
				</port>
			</output>
		</layer>
		<layer id="373" name="Conv_60/WithoutBiases/fq_weights_1/zero_point1614827338" type="Const" version="opset1">
			<data element_type="f16" offset="210424" shape="80,1,1,1" size="160"/>
			<output>
				<port id="0" precision="FP16">
					<dim>80</dim>
					<dim>1</dim>
					<dim>1</dim>
					<dim>1</dim>
				</port>
			</output>
		</layer>
		<layer id="374" name="Conv_60/WithoutBiases/fq_weights_1/minus_zp" type="Subtract" version="opset1">
			<data auto_broadcast="numpy"/>
			<input>
				<port id="0">
					<dim>80</dim>
					<dim>80</dim>
					<dim>1</dim>
					<dim>1</dim>
				</port>
				<port id="1">
					<dim>80</dim>
					<dim>1</dim>
					<dim>1</dim>
					<dim>1</dim>
				</port>
			</input>
			<output>
				<port id="2" precision="FP16">
					<dim>80</dim>
					<dim>80</dim>
					<dim>1</dim>
					<dim>1</dim>
				</port>
			</output>
		</layer>
		<layer id="375" name="Conv_60/WithoutBiases/fq_weights_1/scale1613730110" type="Const" version="opset1">
			<data element_type="f16" offset="210584" shape="80,1,1,1" size="160"/>
			<output>
				<port id="0" precision="FP16">
					<dim>80</dim>
					<dim>1</dim>
					<dim>1</dim>
					<dim>1</dim>
				</port>
			</output>
		</layer>
		<layer id="376" name="Conv_60/WithoutBiases/fq_weights_1/mulpiply_by_scale" type="Multiply" version="opset1">
			<data auto_broadcast="numpy"/>
			<input>
				<port id="0">
					<dim>80</dim>
					<dim>80</dim>
					<dim>1</dim>
					<dim>1</dim>
				</port>
				<port id="1">
					<dim>80</dim>
					<dim>1</dim>
					<dim>1</dim>
					<dim>1</dim>
				</port>
			</input>
			<output>
				<port id="2" precision="FP16">
					<dim>80</dim>
					<dim>80</dim>
					<dim>1</dim>
					<dim>1</dim>
				</port>
			</output>
		</layer>
		<layer id="377" name="Conv_60/WithoutBiases" type="Convolution" version="opset1">
			<data auto_pad="explicit" dilations="1,1" pads_begin="0,0" pads_end="0,0" strides="1,1"/>
			<input>
				<port id="0">
					<dim>1</dim>
					<dim>80</dim>
					<dim>160</dim>
					<dim>160</dim>
				</port>
				<port id="1">
					<dim>80</dim>
					<dim>80</dim>
					<dim>1</dim>
					<dim>1</dim>
				</port>
			</input>
			<output>
				<port id="2" precision="FP16">
					<dim>1</dim>
					<dim>80</dim>
					<dim>160</dim>
					<dim>160</dim>
				</port>
			</output>
		</layer>
		<layer id="378" name="Conv_60/Dims697197226099" type="Const" version="opset1">
			<data element_type="f16" offset="210744" shape="1,80,1,1" size="160"/>
			<output>
				<port id="0" precision="FP16">
					<dim>1</dim>
					<dim>80</dim>
					<dim>1</dim>
					<dim>1</dim>
				</port>
			</output>
		</layer>
		<layer id="379" name="Conv_60" type="Add" version="opset1">
			<data auto_broadcast="numpy"/>
			<input>
				<port id="0">
					<dim>1</dim>
					<dim>80</dim>
					<dim>160</dim>
					<dim>160</dim>
				</port>
				<port id="1">
					<dim>1</dim>
					<dim>80</dim>
					<dim>1</dim>
					<dim>1</dim>
				</port>
			</input>
			<output>
				<port id="2" names="onnx::Sigmoid_1634" precision="FP16">
					<dim>1</dim>
					<dim>80</dim>
					<dim>160</dim>
					<dim>160</dim>
				</port>
			</output>
		</layer>
		<layer id="380" name="Mul_62" type="Swish" version="opset4">
			<input>
				<port id="0">
					<dim>1</dim>
					<dim>80</dim>
					<dim>160</dim>
					<dim>160</dim>
				</port>
			</input>
			<output>
				<port id="1" names="input.51" precision="FP16">
					<dim>1</dim>
					<dim>80</dim>
					<dim>160</dim>
					<dim>160</dim>
				</port>
			</output>
		</layer>
		<layer id="381" name="Conv_63/WithoutBiases/fq_input_0" type="FakeQuantize" version="opset1">
			<data auto_broadcast="numpy" levels="256"/>
			<input>
				<port id="0">
					<dim>1</dim>
					<dim>80</dim>
					<dim>160</dim>
					<dim>160</dim>
				</port>
				<port id="1"/>
				<port id="2"/>
				<port id="3"/>
				<port id="4"/>
			</input>
			<output>
				<port id="5" precision="FP16">
					<dim>1</dim>
					<dim>80</dim>
					<dim>160</dim>
					<dim>160</dim>
				</port>
			</output>
		</layer>
		<layer id="382" name="onnx::Conv_163897514206/quantized1606929027" type="Const" version="opset1">
			<data element_type="i8" offset="210904" shape="80,80,3,3" size="57600"/>
			<output>
				<port id="0" precision="I8">
					<dim>80</dim>
					<dim>80</dim>
					<dim>3</dim>
					<dim>3</dim>
				</port>
			</output>
		</layer>
		<layer id="383" name="onnx::Conv_163897514206/quantized/to_f16" type="Convert" version="opset1">
			<data destination_type="f16"/>
			<input>
				<port id="0">
					<dim>80</dim>
					<dim>80</dim>
					<dim>3</dim>
					<dim>3</dim>
				</port>
			</input>
			<output>
				<port id="1" precision="FP16">
					<dim>80</dim>
					<dim>80</dim>
					<dim>3</dim>
					<dim>3</dim>
				</port>
			</output>
		</layer>
		<layer id="384" name="Conv_63/WithoutBiases/fq_weights_1/zero_point1608829210" type="Const" version="opset1">
			<data element_type="f16" offset="268504" shape="80,1,1,1" size="160"/>
			<output>
				<port id="0" precision="FP16">
					<dim>80</dim>
					<dim>1</dim>
					<dim>1</dim>
					<dim>1</dim>
				</port>
			</output>
		</layer>
		<layer id="385" name="Conv_63/WithoutBiases/fq_weights_1/minus_zp" type="Subtract" version="opset1">
			<data auto_broadcast="numpy"/>
			<input>
				<port id="0">
					<dim>80</dim>
					<dim>80</dim>
					<dim>3</dim>
					<dim>3</dim>
				</port>
				<port id="1">
					<dim>80</dim>
					<dim>1</dim>
					<dim>1</dim>
					<dim>1</dim>
				</port>
			</input>
			<output>
				<port id="2" precision="FP16">
					<dim>80</dim>
					<dim>80</dim>
					<dim>3</dim>
					<dim>3</dim>
				</port>
			</output>
		</layer>
		<layer id="386" name="Conv_63/WithoutBiases/fq_weights_1/scale1607727833" type="Const" version="opset1">
			<data element_type="f16" offset="268664" shape="80,1,1,1" size="160"/>
			<output>
				<port id="0" precision="FP16">
					<dim>80</dim>
					<dim>1</dim>
					<dim>1</dim>
					<dim>1</dim>
				</port>
			</output>
		</layer>
		<layer id="387" name="Conv_63/WithoutBiases/fq_weights_1/mulpiply_by_scale" type="Multiply" version="opset1">
			<data auto_broadcast="numpy"/>
			<input>
				<port id="0">
					<dim>80</dim>
					<dim>80</dim>
					<dim>3</dim>
					<dim>3</dim>
				</port>
				<port id="1">
					<dim>80</dim>
					<dim>1</dim>
					<dim>1</dim>
					<dim>1</dim>
				</port>
			</input>
			<output>
				<port id="2" precision="FP16">
					<dim>80</dim>
					<dim>80</dim>
					<dim>3</dim>
					<dim>3</dim>
				</port>
			</output>
		</layer>
		<layer id="388" name="Conv_63/WithoutBiases" type="Convolution" version="opset1">
			<data auto_pad="explicit" dilations="1,1" pads_begin="1,1" pads_end="1,1" strides="1,1"/>
			<input>
				<port id="0">
					<dim>1</dim>
					<dim>80</dim>
					<dim>160</dim>
					<dim>160</dim>
				</port>
				<port id="1">
					<dim>80</dim>
					<dim>80</dim>
					<dim>3</dim>
					<dim>3</dim>
				</port>
			</input>
			<output>
				<port id="2" precision="FP16">
					<dim>1</dim>
					<dim>80</dim>
					<dim>160</dim>
					<dim>160</dim>
				</port>
			</output>
		</layer>
		<layer id="389" name="Conv_63/Dims748797726405" type="Const" version="opset1">
			<data element_type="f16" offset="268824" shape="1,80,1,1" size="160"/>
			<output>
				<port id="0" precision="FP16">
					<dim>1</dim>
					<dim>80</dim>
					<dim>1</dim>
					<dim>1</dim>
				</port>
			</output>
		</layer>
		<layer id="390" name="Conv_63" type="Add" version="opset1">
			<data auto_broadcast="numpy"/>
			<input>
				<port id="0">
					<dim>1</dim>
					<dim>80</dim>
					<dim>160</dim>
					<dim>160</dim>
				</port>
				<port id="1">
					<dim>1</dim>
					<dim>80</dim>
					<dim>1</dim>
					<dim>1</dim>
				</port>
			</input>
			<output>
				<port id="2" names="onnx::Sigmoid_1637" precision="FP16">
					<dim>1</dim>
					<dim>80</dim>
					<dim>160</dim>
					<dim>160</dim>
				</port>
			</output>
		</layer>
		<layer id="391" name="Mul_65" type="Swish" version="opset4">
			<input>
				<port id="0">
					<dim>1</dim>
					<dim>80</dim>
					<dim>160</dim>
					<dim>160</dim>
				</port>
			</input>
			<output>
				<port id="1" names="onnx::Add_968" precision="FP16">
					<dim>1</dim>
					<dim>80</dim>
					<dim>160</dim>
					<dim>160</dim>
				</port>
			</output>
		</layer>
		<layer id="392" name="Add_66/fq_input_0" type="FakeQuantize" version="opset1">
			<data auto_broadcast="numpy" levels="256"/>
			<input>
				<port id="0">
					<dim>1</dim>
					<dim>80</dim>
					<dim>160</dim>
					<dim>160</dim>
				</port>
				<port id="1"/>
				<port id="2"/>
				<port id="3"/>
				<port id="4"/>
			</input>
			<output>
				<port id="5" precision="FP16">
					<dim>1</dim>
					<dim>80</dim>
					<dim>160</dim>
					<dim>160</dim>
				</port>
			</output>
		</layer>
		<layer id="393" name="Add_66" type="Add" version="opset1">
			<data auto_broadcast="numpy"/>
			<input>
				<port id="0">
					<dim>1</dim>
					<dim>80</dim>
					<dim>160</dim>
					<dim>160</dim>
				</port>
				<port id="1">
					<dim>1</dim>
					<dim>80</dim>
					<dim>160</dim>
					<dim>160</dim>
				</port>
			</input>
			<output>
				<port id="2" names="input.59" precision="FP16">
					<dim>1</dim>
					<dim>80</dim>
					<dim>160</dim>
					<dim>160</dim>
				</port>
			</output>
		</layer>
		<layer id="394" name="Add_73/fq_input_1" type="FakeQuantize" version="opset1">
			<data auto_broadcast="numpy" levels="256"/>
			<input>
				<port id="0">
					<dim>1</dim>
					<dim>80</dim>
					<dim>160</dim>
					<dim>160</dim>
				</port>
				<port id="1"/>
				<port id="2"/>
				<port id="3"/>
				<port id="4"/>
			</input>
			<output>
				<port id="5" precision="FP16">
					<dim>1</dim>
					<dim>80</dim>
					<dim>160</dim>
					<dim>160</dim>
				</port>
			</output>
		</layer>
		<layer id="395" name="onnx::Conv_164198114208/quantized1879926969" type="Const" version="opset1">
			<data element_type="i8" offset="268984" shape="80,80,1,1" size="6400"/>
			<output>
				<port id="0" precision="I8">
					<dim>80</dim>
					<dim>80</dim>
					<dim>1</dim>
					<dim>1</dim>
				</port>
			</output>
		</layer>
		<layer id="396" name="onnx::Conv_164198114208/quantized/to_f16" type="Convert" version="opset1">
			<data destination_type="f16"/>
			<input>
				<port id="0">
					<dim>80</dim>
					<dim>80</dim>
					<dim>1</dim>
					<dim>1</dim>
				</port>
			</input>
			<output>
				<port id="1" precision="FP16">
					<dim>80</dim>
					<dim>80</dim>
					<dim>1</dim>
					<dim>1</dim>
				</port>
			</output>
		</layer>
		<layer id="397" name="Conv_67/WithoutBiases/fq_weights_1/zero_point1881827086" type="Const" version="opset1">
			<data element_type="f16" offset="275384" shape="80,1,1,1" size="160"/>
			<output>
				<port id="0" precision="FP16">
					<dim>80</dim>
					<dim>1</dim>
					<dim>1</dim>
					<dim>1</dim>
				</port>
			</output>
		</layer>
		<layer id="398" name="Conv_67/WithoutBiases/fq_weights_1/minus_zp" type="Subtract" version="opset1">
			<data auto_broadcast="numpy"/>
			<input>
				<port id="0">
					<dim>80</dim>
					<dim>80</dim>
					<dim>1</dim>
					<dim>1</dim>
				</port>
				<port id="1">
					<dim>80</dim>
					<dim>1</dim>
					<dim>1</dim>
					<dim>1</dim>
				</port>
			</input>
			<output>
				<port id="2" precision="FP16">
					<dim>80</dim>
					<dim>80</dim>
					<dim>1</dim>
					<dim>1</dim>
				</port>
			</output>
		</layer>
		<layer id="399" name="Conv_67/WithoutBiases/fq_weights_1/scale1880729228" type="Const" version="opset1">
			<data element_type="f16" offset="275544" shape="80,1,1,1" size="160"/>
			<output>
				<port id="0" precision="FP16">
					<dim>80</dim>
					<dim>1</dim>
					<dim>1</dim>
					<dim>1</dim>
				</port>
			</output>
		</layer>
		<layer id="400" name="Conv_67/WithoutBiases/fq_weights_1/mulpiply_by_scale" type="Multiply" version="opset1">
			<data auto_broadcast="numpy"/>
			<input>
				<port id="0">
					<dim>80</dim>
					<dim>80</dim>
					<dim>1</dim>
					<dim>1</dim>
				</port>
				<port id="1">
					<dim>80</dim>
					<dim>1</dim>
					<dim>1</dim>
					<dim>1</dim>
				</port>
			</input>
			<output>
				<port id="2" precision="FP16">
					<dim>80</dim>
					<dim>80</dim>
					<dim>1</dim>
					<dim>1</dim>
				</port>
			</output>
		</layer>
		<layer id="401" name="Conv_67/WithoutBiases" type="Convolution" version="opset1">
			<data auto_pad="explicit" dilations="1,1" pads_begin="0,0" pads_end="0,0" strides="1,1"/>
			<input>
				<port id="0">
					<dim>1</dim>
					<dim>80</dim>
					<dim>160</dim>
					<dim>160</dim>
				</port>
				<port id="1">
					<dim>80</dim>
					<dim>80</dim>
					<dim>1</dim>
					<dim>1</dim>
				</port>
			</input>
			<output>
				<port id="2" precision="FP16">
					<dim>1</dim>
					<dim>80</dim>
					<dim>160</dim>
					<dim>160</dim>
				</port>
			</output>
		</layer>
		<layer id="402" name="Conv_67/Dims755998328940" type="Const" version="opset1">
			<data element_type="f16" offset="275704" shape="1,80,1,1" size="160"/>
			<output>
				<port id="0" precision="FP16">
					<dim>1</dim>
					<dim>80</dim>
					<dim>1</dim>
					<dim>1</dim>
				</port>
			</output>
		</layer>
		<layer id="403" name="Conv_67" type="Add" version="opset1">
			<data auto_broadcast="numpy"/>
			<input>
				<port id="0">
					<dim>1</dim>
					<dim>80</dim>
					<dim>160</dim>
					<dim>160</dim>
				</port>
				<port id="1">
					<dim>1</dim>
					<dim>80</dim>
					<dim>1</dim>
					<dim>1</dim>
				</port>
			</input>
			<output>
				<port id="2" names="onnx::Sigmoid_1640" precision="FP16">
					<dim>1</dim>
					<dim>80</dim>
					<dim>160</dim>
					<dim>160</dim>
				</port>
			</output>
		</layer>
		<layer id="404" name="Mul_69" type="Swish" version="opset4">
			<input>
				<port id="0">
					<dim>1</dim>
					<dim>80</dim>
					<dim>160</dim>
					<dim>160</dim>
				</port>
			</input>
			<output>
				<port id="1" names="input.67" precision="FP16">
					<dim>1</dim>
					<dim>80</dim>
					<dim>160</dim>
					<dim>160</dim>
				</port>
			</output>
		</layer>
		<layer id="405" name="Conv_70/WithoutBiases/fq_input_0" type="FakeQuantize" version="opset1">
			<data auto_broadcast="numpy" levels="256"/>
			<input>
				<port id="0">
					<dim>1</dim>
					<dim>80</dim>
					<dim>160</dim>
					<dim>160</dim>
				</port>
				<port id="1"/>
				<port id="2"/>
				<port id="3"/>
				<port id="4"/>
			</input>
			<output>
				<port id="5" precision="FP16">
					<dim>1</dim>
					<dim>80</dim>
					<dim>160</dim>
					<dim>160</dim>
				</port>
			</output>
		</layer>
		<layer id="406" name="onnx::Conv_164498614210/quantized1735927314" type="Const" version="opset1">
			<data element_type="i8" offset="275864" shape="80,80,3,3" size="57600"/>
			<output>
				<port id="0" precision="I8">
					<dim>80</dim>
					<dim>80</dim>
					<dim>3</dim>
					<dim>3</dim>
				</port>
			</output>
		</layer>
		<layer id="407" name="onnx::Conv_164498614210/quantized/to_f16" type="Convert" version="opset1">
			<data destination_type="f16"/>
			<input>
				<port id="0">
					<dim>80</dim>
					<dim>80</dim>
					<dim>3</dim>
					<dim>3</dim>
				</port>
			</input>
			<output>
				<port id="1" precision="FP16">
					<dim>80</dim>
					<dim>80</dim>
					<dim>3</dim>
					<dim>3</dim>
				</port>
			</output>
		</layer>
		<layer id="408" name="Conv_70/WithoutBiases/fq_weights_1/zero_point1737829138" type="Const" version="opset1">
			<data element_type="f16" offset="333464" shape="80,1,1,1" size="160"/>
			<output>
				<port id="0" precision="FP16">
					<dim>80</dim>
					<dim>1</dim>
					<dim>1</dim>
					<dim>1</dim>
				</port>
			</output>
		</layer>
		<layer id="409" name="Conv_70/WithoutBiases/fq_weights_1/minus_zp" type="Subtract" version="opset1">
			<data auto_broadcast="numpy"/>
			<input>
				<port id="0">
					<dim>80</dim>
					<dim>80</dim>
					<dim>3</dim>
					<dim>3</dim>
				</port>
				<port id="1">
					<dim>80</dim>
					<dim>1</dim>
					<dim>1</dim>
					<dim>1</dim>
				</port>
			</input>
			<output>
				<port id="2" precision="FP16">
					<dim>80</dim>
					<dim>80</dim>
					<dim>3</dim>
					<dim>3</dim>
				</port>
			</output>
		</layer>
		<layer id="410" name="Conv_70/WithoutBiases/fq_weights_1/scale1736727959" type="Const" version="opset1">
			<data element_type="f16" offset="333624" shape="80,1,1,1" size="160"/>
			<output>
				<port id="0" precision="FP16">
					<dim>80</dim>
					<dim>1</dim>
					<dim>1</dim>
					<dim>1</dim>
				</port>
			</output>
		</layer>
		<layer id="411" name="Conv_70/WithoutBiases/fq_weights_1/mulpiply_by_scale" type="Multiply" version="opset1">
			<data auto_broadcast="numpy"/>
			<input>
				<port id="0">
					<dim>80</dim>
					<dim>80</dim>
					<dim>3</dim>
					<dim>3</dim>
				</port>
				<port id="1">
					<dim>80</dim>
					<dim>1</dim>
					<dim>1</dim>
					<dim>1</dim>
				</port>
			</input>
			<output>
				<port id="2" precision="FP16">
					<dim>80</dim>
					<dim>80</dim>
					<dim>3</dim>
					<dim>3</dim>
				</port>
			</output>
		</layer>
		<layer id="412" name="Conv_70/WithoutBiases" type="Convolution" version="opset1">
			<data auto_pad="explicit" dilations="1,1" pads_begin="1,1" pads_end="1,1" strides="1,1"/>
			<input>
				<port id="0">
					<dim>1</dim>
					<dim>80</dim>
					<dim>160</dim>
					<dim>160</dim>
				</port>
				<port id="1">
					<dim>80</dim>
					<dim>80</dim>
					<dim>3</dim>
					<dim>3</dim>
				</port>
			</input>
			<output>
				<port id="2" precision="FP16">
					<dim>1</dim>
					<dim>80</dim>
					<dim>160</dim>
					<dim>160</dim>
				</port>
			</output>
		</layer>
		<layer id="413" name="Conv_70/Dims746398828802" type="Const" version="opset1">
			<data element_type="f16" offset="333784" shape="1,80,1,1" size="160"/>
			<output>
				<port id="0" precision="FP16">
					<dim>1</dim>
					<dim>80</dim>
					<dim>1</dim>
					<dim>1</dim>
				</port>
			</output>
		</layer>
		<layer id="414" name="Conv_70" type="Add" version="opset1">
			<data auto_broadcast="numpy"/>
			<input>
				<port id="0">
					<dim>1</dim>
					<dim>80</dim>
					<dim>160</dim>
					<dim>160</dim>
				</port>
				<port id="1">
					<dim>1</dim>
					<dim>80</dim>
					<dim>1</dim>
					<dim>1</dim>
				</port>
			</input>
			<output>
				<port id="2" names="onnx::Sigmoid_1643" precision="FP16">
					<dim>1</dim>
					<dim>80</dim>
					<dim>160</dim>
					<dim>160</dim>
				</port>
			</output>
		</layer>
		<layer id="415" name="Mul_72" type="Swish" version="opset4">
			<input>
				<port id="0">
					<dim>1</dim>
					<dim>80</dim>
					<dim>160</dim>
					<dim>160</dim>
				</port>
			</input>
			<output>
				<port id="1" names="onnx::Add_977" precision="FP16">
					<dim>1</dim>
					<dim>80</dim>
					<dim>160</dim>
					<dim>160</dim>
				</port>
			</output>
		</layer>
		<layer id="416" name="Add_73/fq_input_0" type="FakeQuantize" version="opset1">
			<data auto_broadcast="numpy" levels="256"/>
			<input>
				<port id="0">
					<dim>1</dim>
					<dim>80</dim>
					<dim>160</dim>
					<dim>160</dim>
				</port>
				<port id="1"/>
				<port id="2"/>
				<port id="3"/>
				<port id="4"/>
			</input>
			<output>
				<port id="5" precision="FP16">
					<dim>1</dim>
					<dim>80</dim>
					<dim>160</dim>
					<dim>160</dim>
				</port>
			</output>
		</layer>
		<layer id="417" name="Add_73" type="Add" version="opset1">
			<data auto_broadcast="numpy"/>
			<input>
				<port id="0">
					<dim>1</dim>
					<dim>80</dim>
					<dim>160</dim>
					<dim>160</dim>
				</port>
				<port id="1">
					<dim>1</dim>
					<dim>80</dim>
					<dim>160</dim>
					<dim>160</dim>
				</port>
			</input>
			<output>
				<port id="2" names="input.75" precision="FP16">
					<dim>1</dim>
					<dim>80</dim>
					<dim>160</dim>
					<dim>160</dim>
				</port>
			</output>
		</layer>
		<layer id="418" name="Add_80/fq_input_1" type="FakeQuantize" version="opset1">
			<data auto_broadcast="numpy" levels="256"/>
			<input>
				<port id="0">
					<dim>1</dim>
					<dim>80</dim>
					<dim>160</dim>
					<dim>160</dim>
				</port>
				<port id="1"/>
				<port id="2"/>
				<port id="3"/>
				<port id="4"/>
			</input>
			<output>
				<port id="5" precision="FP16">
					<dim>1</dim>
					<dim>80</dim>
					<dim>160</dim>
					<dim>160</dim>
				</port>
			</output>
		</layer>
		<layer id="419" name="onnx::Conv_164799214212/quantized1693928439" type="Const" version="opset1">
			<data element_type="i8" offset="333944" shape="80,80,1,1" size="6400"/>
			<output>
				<port id="0" precision="I8">
					<dim>80</dim>
					<dim>80</dim>
					<dim>1</dim>
					<dim>1</dim>
				</port>
			</output>
		</layer>
		<layer id="420" name="onnx::Conv_164799214212/quantized/to_f16" type="Convert" version="opset1">
			<data destination_type="f16"/>
			<input>
				<port id="0">
					<dim>80</dim>
					<dim>80</dim>
					<dim>1</dim>
					<dim>1</dim>
				</port>
			</input>
			<output>
				<port id="1" precision="FP16">
					<dim>80</dim>
					<dim>80</dim>
					<dim>1</dim>
					<dim>1</dim>
				</port>
			</output>
		</layer>
		<layer id="421" name="Conv_74/WithoutBiases/fq_weights_1/zero_point1695827134" type="Const" version="opset1">
			<data element_type="f16" offset="340344" shape="80,1,1,1" size="160"/>
			<output>
				<port id="0" precision="FP16">
					<dim>80</dim>
					<dim>1</dim>
					<dim>1</dim>
					<dim>1</dim>
				</port>
			</output>
		</layer>
		<layer id="422" name="Conv_74/WithoutBiases/fq_weights_1/minus_zp" type="Subtract" version="opset1">
			<data auto_broadcast="numpy"/>
			<input>
				<port id="0">
					<dim>80</dim>
					<dim>80</dim>
					<dim>1</dim>
					<dim>1</dim>
				</port>
				<port id="1">
					<dim>80</dim>
					<dim>1</dim>
					<dim>1</dim>
					<dim>1</dim>
				</port>
			</input>
			<output>
				<port id="2" precision="FP16">
					<dim>80</dim>
					<dim>80</dim>
					<dim>1</dim>
					<dim>1</dim>
				</port>
			</output>
		</layer>
		<layer id="423" name="Conv_74/WithoutBiases/fq_weights_1/scale1694728805" type="Const" version="opset1">
			<data element_type="f16" offset="340504" shape="80,1,1,1" size="160"/>
			<output>
				<port id="0" precision="FP16">
					<dim>80</dim>
					<dim>1</dim>
					<dim>1</dim>
					<dim>1</dim>
				</port>
			</output>
		</layer>
		<layer id="424" name="Conv_74/WithoutBiases/fq_weights_1/mulpiply_by_scale" type="Multiply" version="opset1">
			<data auto_broadcast="numpy"/>
			<input>
				<port id="0">
					<dim>80</dim>
					<dim>80</dim>
					<dim>1</dim>
					<dim>1</dim>
				</port>
				<port id="1">
					<dim>80</dim>
					<dim>1</dim>
					<dim>1</dim>
					<dim>1</dim>
				</port>
			</input>
			<output>
				<port id="2" precision="FP16">
					<dim>80</dim>
					<dim>80</dim>
					<dim>1</dim>
					<dim>1</dim>
				</port>
			</output>
		</layer>
		<layer id="425" name="Conv_74/WithoutBiases" type="Convolution" version="opset1">
			<data auto_pad="explicit" dilations="1,1" pads_begin="0,0" pads_end="0,0" strides="1,1"/>
			<input>
				<port id="0">
					<dim>1</dim>
					<dim>80</dim>
					<dim>160</dim>
					<dim>160</dim>
				</port>
				<port id="1">
					<dim>80</dim>
					<dim>80</dim>
					<dim>1</dim>
					<dim>1</dim>
				</port>
			</input>
			<output>
				<port id="2" precision="FP16">
					<dim>1</dim>
					<dim>80</dim>
					<dim>160</dim>
					<dim>160</dim>
				</port>
			</output>
		</layer>
		<layer id="426" name="Conv_74/Dims726599429429" type="Const" version="opset1">
			<data element_type="f16" offset="340664" shape="1,80,1,1" size="160"/>
			<output>
				<port id="0" precision="FP16">
					<dim>1</dim>
					<dim>80</dim>
					<dim>1</dim>
					<dim>1</dim>
				</port>
			</output>
		</layer>
		<layer id="427" name="Conv_74" type="Add" version="opset1">
			<data auto_broadcast="numpy"/>
			<input>
				<port id="0">
					<dim>1</dim>
					<dim>80</dim>
					<dim>160</dim>
					<dim>160</dim>
				</port>
				<port id="1">
					<dim>1</dim>
					<dim>80</dim>
					<dim>1</dim>
					<dim>1</dim>
				</port>
			</input>
			<output>
				<port id="2" names="onnx::Sigmoid_1646" precision="FP16">
					<dim>1</dim>
					<dim>80</dim>
					<dim>160</dim>
					<dim>160</dim>
				</port>
			</output>
		</layer>
		<layer id="428" name="Mul_76" type="Swish" version="opset4">
			<input>
				<port id="0">
					<dim>1</dim>
					<dim>80</dim>
					<dim>160</dim>
					<dim>160</dim>
				</port>
			</input>
			<output>
				<port id="1" names="input.83" precision="FP16">
					<dim>1</dim>
					<dim>80</dim>
					<dim>160</dim>
					<dim>160</dim>
				</port>
			</output>
		</layer>
		<layer id="429" name="Conv_77/WithoutBiases/fq_input_0" type="FakeQuantize" version="opset1">
			<data auto_broadcast="numpy" levels="256"/>
			<input>
				<port id="0">
					<dim>1</dim>
					<dim>80</dim>
					<dim>160</dim>
					<dim>160</dim>
				</port>
				<port id="1"/>
				<port id="2"/>
				<port id="3"/>
				<port id="4"/>
			</input>
			<output>
				<port id="5" precision="FP16">
					<dim>1</dim>
					<dim>80</dim>
					<dim>160</dim>
					<dim>160</dim>
				</port>
			</output>
		</layer>
		<layer id="430" name="onnx::Conv_165099714214/quantized1843929747" type="Const" version="opset1">
			<data element_type="i8" offset="340824" shape="80,80,3,3" size="57600"/>
			<output>
				<port id="0" precision="I8">
					<dim>80</dim>
					<dim>80</dim>
					<dim>3</dim>
					<dim>3</dim>
				</port>
			</output>
		</layer>
		<layer id="431" name="onnx::Conv_165099714214/quantized/to_f16" type="Convert" version="opset1">
			<data destination_type="f16"/>
			<input>
				<port id="0">
					<dim>80</dim>
					<dim>80</dim>
					<dim>3</dim>
					<dim>3</dim>
				</port>
			</input>
			<output>
				<port id="1" precision="FP16">
					<dim>80</dim>
					<dim>80</dim>
					<dim>3</dim>
					<dim>3</dim>
				</port>
			</output>
		</layer>
		<layer id="432" name="Conv_77/WithoutBiases/fq_weights_1/zero_point1845829522" type="Const" version="opset1">
			<data element_type="f16" offset="398424" shape="80,1,1,1" size="160"/>
			<output>
				<port id="0" precision="FP16">
					<dim>80</dim>
					<dim>1</dim>
					<dim>1</dim>
					<dim>1</dim>
				</port>
			</output>
		</layer>
		<layer id="433" name="Conv_77/WithoutBiases/fq_weights_1/minus_zp" type="Subtract" version="opset1">
			<data auto_broadcast="numpy"/>
			<input>
				<port id="0">
					<dim>80</dim>
					<dim>80</dim>
					<dim>3</dim>
					<dim>3</dim>
				</port>
				<port id="1">
					<dim>80</dim>
					<dim>1</dim>
					<dim>1</dim>
					<dim>1</dim>
				</port>
			</input>
			<output>
				<port id="2" precision="FP16">
					<dim>80</dim>
					<dim>80</dim>
					<dim>3</dim>
					<dim>3</dim>
				</port>
			</output>
		</layer>
		<layer id="434" name="Conv_77/WithoutBiases/fq_weights_1/scale1844727101" type="Const" version="opset1">
			<data element_type="f16" offset="398584" shape="80,1,1,1" size="160"/>
			<output>
				<port id="0" precision="FP16">
					<dim>80</dim>
					<dim>1</dim>
					<dim>1</dim>
					<dim>1</dim>
				</port>
			</output>
		</layer>
		<layer id="435" name="Conv_77/WithoutBiases/fq_weights_1/mulpiply_by_scale" type="Multiply" version="opset1">
			<data auto_broadcast="numpy"/>
			<input>
				<port id="0">
					<dim>80</dim>
					<dim>80</dim>
					<dim>3</dim>
					<dim>3</dim>
				</port>
				<port id="1">
					<dim>80</dim>
					<dim>1</dim>
					<dim>1</dim>
					<dim>1</dim>
				</port>
			</input>
			<output>
				<port id="2" precision="FP16">
					<dim>80</dim>
					<dim>80</dim>
					<dim>3</dim>
					<dim>3</dim>
				</port>
			</output>
		</layer>
		<layer id="436" name="Conv_77/WithoutBiases" type="Convolution" version="opset1">
			<data auto_pad="explicit" dilations="1,1" pads_begin="1,1" pads_end="1,1" strides="1,1"/>
			<input>
				<port id="0">
					<dim>1</dim>
					<dim>80</dim>
					<dim>160</dim>
					<dim>160</dim>
				</port>
				<port id="1">
					<dim>80</dim>
					<dim>80</dim>
					<dim>3</dim>
					<dim>3</dim>
				</port>
			</input>
			<output>
				<port id="2" precision="FP16">
					<dim>1</dim>
					<dim>80</dim>
					<dim>160</dim>
					<dim>160</dim>
				</port>
			</output>
		</layer>
		<layer id="437" name="Conv_77/Dims740999927161" type="Const" version="opset1">
			<data element_type="f16" offset="398744" shape="1,80,1,1" size="160"/>
			<output>
				<port id="0" precision="FP16">
					<dim>1</dim>
					<dim>80</dim>
					<dim>1</dim>
					<dim>1</dim>
				</port>
			</output>
		</layer>
		<layer id="438" name="Conv_77" type="Add" version="opset1">
			<data auto_broadcast="numpy"/>
			<input>
				<port id="0">
					<dim>1</dim>
					<dim>80</dim>
					<dim>160</dim>
					<dim>160</dim>
				</port>
				<port id="1">
					<dim>1</dim>
					<dim>80</dim>
					<dim>1</dim>
					<dim>1</dim>
				</port>
			</input>
			<output>
				<port id="2" names="onnx::Sigmoid_1649" precision="FP16">
					<dim>1</dim>
					<dim>80</dim>
					<dim>160</dim>
					<dim>160</dim>
				</port>
			</output>
		</layer>
		<layer id="439" name="Mul_79" type="Swish" version="opset4">
			<input>
				<port id="0">
					<dim>1</dim>
					<dim>80</dim>
					<dim>160</dim>
					<dim>160</dim>
				</port>
			</input>
			<output>
				<port id="1" names="onnx::Add_986" precision="FP16">
					<dim>1</dim>
					<dim>80</dim>
					<dim>160</dim>
					<dim>160</dim>
				</port>
			</output>
		</layer>
		<layer id="440" name="Add_80/fq_input_0" type="FakeQuantize" version="opset1">
			<data auto_broadcast="numpy" levels="256"/>
			<input>
				<port id="0">
					<dim>1</dim>
					<dim>80</dim>
					<dim>160</dim>
					<dim>160</dim>
				</port>
				<port id="1"/>
				<port id="2"/>
				<port id="3"/>
				<port id="4"/>
			</input>
			<output>
				<port id="5" precision="FP16">
					<dim>1</dim>
					<dim>80</dim>
					<dim>160</dim>
					<dim>160</dim>
				</port>
			</output>
		</layer>
		<layer id="441" name="Add_80" type="Add" version="opset1">
			<data auto_broadcast="numpy"/>
			<input>
				<port id="0">
					<dim>1</dim>
					<dim>80</dim>
					<dim>160</dim>
					<dim>160</dim>
				</port>
				<port id="1">
					<dim>1</dim>
					<dim>80</dim>
					<dim>160</dim>
					<dim>160</dim>
				</port>
			</input>
			<output>
				<port id="2" names="onnx::Concat_987" precision="FP16">
					<dim>1</dim>
					<dim>80</dim>
					<dim>160</dim>
					<dim>160</dim>
				</port>
			</output>
		</layer>
		<layer id="442" name="Concat_81/fq_input_0" type="FakeQuantize" version="opset1">
			<data auto_broadcast="numpy" levels="256"/>
			<input>
				<port id="0">
					<dim>1</dim>
					<dim>80</dim>
					<dim>160</dim>
					<dim>160</dim>
				</port>
				<port id="1"/>
				<port id="2"/>
				<port id="3"/>
				<port id="4"/>
			</input>
			<output>
				<port id="5" precision="FP16">
					<dim>1</dim>
					<dim>80</dim>
					<dim>160</dim>
					<dim>160</dim>
				</port>
			</output>
		</layer>
		<layer id="443" name="8923892728592" type="Const" version="opset1">
			<data element_type="f16" offset="398904" shape="" size="2"/>
			<output>
				<port id="0" precision="FP16"/>
			</output>
		</layer>
		<layer id="444" name="8924892826726" type="Const" version="opset1">
			<data element_type="f16" offset="398906" shape="" size="2"/>
			<output>
				<port id="0" precision="FP16"/>
			</output>
		</layer>
		<layer id="445" name="8925892928517" type="Const" version="opset1">
			<data element_type="f16" offset="398904" shape="" size="2"/>
			<output>
				<port id="0" precision="FP16"/>
			</output>
		</layer>
		<layer id="446" name="8926893027983" type="Const" version="opset1">
			<data element_type="f16" offset="398906" shape="" size="2"/>
			<output>
				<port id="0" precision="FP16"/>
			</output>
		</layer>
		<layer id="447" name="onnx::Conv_1626100314216/quantized1726927722" type="Const" version="opset1">
			<data element_type="i8" offset="398908" shape="80,160,1,1" size="12800"/>
			<output>
				<port id="0" precision="I8">
					<dim>80</dim>
					<dim>160</dim>
					<dim>1</dim>
					<dim>1</dim>
				</port>
			</output>
		</layer>
		<layer id="448" name="onnx::Conv_1626100314216/quantized/to_f16" type="Convert" version="opset1">
			<data destination_type="f16"/>
			<input>
				<port id="0">
					<dim>80</dim>
					<dim>160</dim>
					<dim>1</dim>
					<dim>1</dim>
				</port>
			</input>
			<output>
				<port id="1" precision="FP16">
					<dim>80</dim>
					<dim>160</dim>
					<dim>1</dim>
					<dim>1</dim>
				</port>
			</output>
		</layer>
		<layer id="449" name="Conv_50/WithoutBiases/fq_weights_1/zero_point1728829291" type="Const" version="opset1">
			<data element_type="f16" offset="411708" shape="80,1,1,1" size="160"/>
			<output>
				<port id="0" precision="FP16">
					<dim>80</dim>
					<dim>1</dim>
					<dim>1</dim>
					<dim>1</dim>
				</port>
			</output>
		</layer>
		<layer id="450" name="Conv_50/WithoutBiases/fq_weights_1/minus_zp" type="Subtract" version="opset1">
			<data auto_broadcast="numpy"/>
			<input>
				<port id="0">
					<dim>80</dim>
					<dim>160</dim>
					<dim>1</dim>
					<dim>1</dim>
				</port>
				<port id="1">
					<dim>80</dim>
					<dim>1</dim>
					<dim>1</dim>
					<dim>1</dim>
				</port>
			</input>
			<output>
				<port id="2" precision="FP16">
					<dim>80</dim>
					<dim>160</dim>
					<dim>1</dim>
					<dim>1</dim>
				</port>
			</output>
		</layer>
		<layer id="451" name="Conv_50/WithoutBiases/fq_weights_1/scale1727726105" type="Const" version="opset1">
			<data element_type="f16" offset="411868" shape="80,1,1,1" size="160"/>
			<output>
				<port id="0" precision="FP16">
					<dim>80</dim>
					<dim>1</dim>
					<dim>1</dim>
					<dim>1</dim>
				</port>
			</output>
		</layer>
		<layer id="452" name="Conv_50/WithoutBiases/fq_weights_1/mulpiply_by_scale" type="Multiply" version="opset1">
			<data auto_broadcast="numpy"/>
			<input>
				<port id="0">
					<dim>80</dim>
					<dim>160</dim>
					<dim>1</dim>
					<dim>1</dim>
				</port>
				<port id="1">
					<dim>80</dim>
					<dim>1</dim>
					<dim>1</dim>
					<dim>1</dim>
				</port>
			</input>
			<output>
				<port id="2" precision="FP16">
					<dim>80</dim>
					<dim>160</dim>
					<dim>1</dim>
					<dim>1</dim>
				</port>
			</output>
		</layer>
		<layer id="453" name="Conv_50/WithoutBiases" type="Convolution" version="opset1">
			<data auto_pad="explicit" dilations="1,1" pads_begin="0,0" pads_end="0,0" strides="1,1"/>
			<input>
				<port id="0">
					<dim>1</dim>
					<dim>160</dim>
					<dim>160</dim>
					<dim>160</dim>
				</port>
				<port id="1">
					<dim>80</dim>
					<dim>160</dim>
					<dim>1</dim>
					<dim>1</dim>
				</port>
			</input>
			<output>
				<port id="2" precision="FP16">
					<dim>1</dim>
					<dim>80</dim>
					<dim>160</dim>
					<dim>160</dim>
				</port>
			</output>
		</layer>
		<layer id="454" name="Conv_50/Dims6989100527452" type="Const" version="opset1">
			<data element_type="f16" offset="412028" shape="1,80,1,1" size="160"/>
			<output>
				<port id="0" precision="FP16">
					<dim>1</dim>
					<dim>80</dim>
					<dim>1</dim>
					<dim>1</dim>
				</port>
			</output>
		</layer>
		<layer id="455" name="Conv_50" type="Add" version="opset1">
			<data auto_broadcast="numpy"/>
			<input>
				<port id="0">
					<dim>1</dim>
					<dim>80</dim>
					<dim>160</dim>
					<dim>160</dim>
				</port>
				<port id="1">
					<dim>1</dim>
					<dim>80</dim>
					<dim>1</dim>
					<dim>1</dim>
				</port>
			</input>
			<output>
				<port id="2" names="onnx::Sigmoid_1625" precision="FP16">
					<dim>1</dim>
					<dim>80</dim>
					<dim>160</dim>
					<dim>160</dim>
				</port>
			</output>
		</layer>
		<layer id="456" name="Mul_52" type="Swish" version="opset4">
			<input>
				<port id="0">
					<dim>1</dim>
					<dim>80</dim>
					<dim>160</dim>
					<dim>160</dim>
				</port>
			</input>
			<output>
				<port id="1" names="onnx::Concat_951" precision="FP16">
					<dim>1</dim>
					<dim>80</dim>
					<dim>160</dim>
					<dim>160</dim>
				</port>
			</output>
		</layer>
		<layer id="457" name="Concat_81/fq_input_1" type="FakeQuantize" version="opset1">
			<data auto_broadcast="numpy" levels="256"/>
			<input>
				<port id="0">
					<dim>1</dim>
					<dim>80</dim>
					<dim>160</dim>
					<dim>160</dim>
				</port>
				<port id="1"/>
				<port id="2"/>
				<port id="3"/>
				<port id="4"/>
			</input>
			<output>
				<port id="5" precision="FP16">
					<dim>1</dim>
					<dim>80</dim>
					<dim>160</dim>
					<dim>160</dim>
				</port>
			</output>
		</layer>
		<layer id="458" name="Concat_81" type="Concat" version="opset1">
			<data axis="1"/>
			<input>
				<port id="0">
					<dim>1</dim>
					<dim>80</dim>
					<dim>160</dim>
					<dim>160</dim>
				</port>
				<port id="1">
					<dim>1</dim>
					<dim>80</dim>
					<dim>160</dim>
					<dim>160</dim>
				</port>
			</input>
			<output>
				<port id="2" names="input.91" precision="FP16">
					<dim>1</dim>
					<dim>160</dim>
					<dim>160</dim>
					<dim>160</dim>
				</port>
			</output>
		</layer>
		<layer id="459" name="onnx::Conv_1653100914218/quantized1720929597" type="Const" version="opset1">
			<data element_type="i8" offset="412188" shape="160,160,1,1" size="25600"/>
			<output>
				<port id="0" precision="I8">
					<dim>160</dim>
					<dim>160</dim>
					<dim>1</dim>
					<dim>1</dim>
				</port>
			</output>
		</layer>
		<layer id="460" name="onnx::Conv_1653100914218/quantized/to_f16" type="Convert" version="opset1">
			<data destination_type="f16"/>
			<input>
				<port id="0">
					<dim>160</dim>
					<dim>160</dim>
					<dim>1</dim>
					<dim>1</dim>
				</port>
			</input>
			<output>
				<port id="1" precision="FP16">
					<dim>160</dim>
					<dim>160</dim>
					<dim>1</dim>
					<dim>1</dim>
				</port>
			</output>
		</layer>
		<layer id="461" name="Conv_82/WithoutBiases/fq_weights_1/zero_point1722826540" type="Const" version="opset1">
			<data element_type="f16" offset="437788" shape="160,1,1,1" size="320"/>
			<output>
				<port id="0" precision="FP16">
					<dim>160</dim>
					<dim>1</dim>
					<dim>1</dim>
					<dim>1</dim>
				</port>
			</output>
		</layer>
		<layer id="462" name="Conv_82/WithoutBiases/fq_weights_1/minus_zp" type="Subtract" version="opset1">
			<data auto_broadcast="numpy"/>
			<input>
				<port id="0">
					<dim>160</dim>
					<dim>160</dim>
					<dim>1</dim>
					<dim>1</dim>
				</port>
				<port id="1">
					<dim>160</dim>
					<dim>1</dim>
					<dim>1</dim>
					<dim>1</dim>
				</port>
			</input>
			<output>
				<port id="2" precision="FP16">
					<dim>160</dim>
					<dim>160</dim>
					<dim>1</dim>
					<dim>1</dim>
				</port>
			</output>
		</layer>
		<layer id="463" name="Conv_82/WithoutBiases/fq_weights_1/scale1721728652" type="Const" version="opset1">
			<data element_type="f16" offset="438108" shape="160,1,1,1" size="320"/>
			<output>
				<port id="0" precision="FP16">
					<dim>160</dim>
					<dim>1</dim>
					<dim>1</dim>
					<dim>1</dim>
				</port>
			</output>
		</layer>
		<layer id="464" name="Conv_82/WithoutBiases/fq_weights_1/mulpiply_by_scale" type="Multiply" version="opset1">
			<data auto_broadcast="numpy"/>
			<input>
				<port id="0">
					<dim>160</dim>
					<dim>160</dim>
					<dim>1</dim>
					<dim>1</dim>
				</port>
				<port id="1">
					<dim>160</dim>
					<dim>1</dim>
					<dim>1</dim>
					<dim>1</dim>
				</port>
			</input>
			<output>
				<port id="2" precision="FP16">
					<dim>160</dim>
					<dim>160</dim>
					<dim>1</dim>
					<dim>1</dim>
				</port>
			</output>
		</layer>
		<layer id="465" name="Conv_82/WithoutBiases" type="Convolution" version="opset1">
			<data auto_pad="explicit" dilations="1,1" pads_begin="0,0" pads_end="0,0" strides="1,1"/>
			<input>
				<port id="0">
					<dim>1</dim>
					<dim>160</dim>
					<dim>160</dim>
					<dim>160</dim>
				</port>
				<port id="1">
					<dim>160</dim>
					<dim>160</dim>
					<dim>1</dim>
					<dim>1</dim>
				</port>
			</input>
			<output>
				<port id="2" precision="FP16">
					<dim>1</dim>
					<dim>160</dim>
					<dim>160</dim>
					<dim>160</dim>
				</port>
			</output>
		</layer>
		<layer id="466" name="Conv_82/Dims7331101129204" type="Const" version="opset1">
			<data element_type="f16" offset="438428" shape="1,160,1,1" size="320"/>
			<output>
				<port id="0" precision="FP16">
					<dim>1</dim>
					<dim>160</dim>
					<dim>1</dim>
					<dim>1</dim>
				</port>
			</output>
		</layer>
		<layer id="467" name="Conv_82" type="Add" version="opset1">
			<data auto_broadcast="numpy"/>
			<input>
				<port id="0">
					<dim>1</dim>
					<dim>160</dim>
					<dim>160</dim>
					<dim>160</dim>
				</port>
				<port id="1">
					<dim>1</dim>
					<dim>160</dim>
					<dim>1</dim>
					<dim>1</dim>
				</port>
			</input>
			<output>
				<port id="2" names="onnx::Sigmoid_1652" precision="FP16">
					<dim>1</dim>
					<dim>160</dim>
					<dim>160</dim>
					<dim>160</dim>
				</port>
			</output>
		</layer>
		<layer id="468" name="Mul_84" type="Swish" version="opset4">
			<input>
				<port id="0">
					<dim>1</dim>
					<dim>160</dim>
					<dim>160</dim>
					<dim>160</dim>
				</port>
			</input>
			<output>
				<port id="1" names="input.99" precision="FP16">
					<dim>1</dim>
					<dim>160</dim>
					<dim>160</dim>
					<dim>160</dim>
				</port>
			</output>
		</layer>
		<layer id="469" name="Conv_85/WithoutBiases/fq_input_0" type="FakeQuantize" version="opset1">
			<data auto_broadcast="numpy" levels="256"/>
			<input>
				<port id="0">
					<dim>1</dim>
					<dim>160</dim>
					<dim>160</dim>
					<dim>160</dim>
				</port>
				<port id="1"/>
				<port id="2"/>
				<port id="3"/>
				<port id="4"/>
			</input>
			<output>
				<port id="5" precision="FP16">
					<dim>1</dim>
					<dim>160</dim>
					<dim>160</dim>
					<dim>160</dim>
				</port>
			</output>
		</layer>
		<layer id="470" name="onnx::Conv_1656101414220/quantized1741926081" type="Const" version="opset1">
			<data element_type="i8" offset="438748" shape="320,160,3,3" size="460800"/>
			<output>
				<port id="0" precision="I8">
					<dim>320</dim>
					<dim>160</dim>
					<dim>3</dim>
					<dim>3</dim>
				</port>
			</output>
		</layer>
		<layer id="471" name="onnx::Conv_1656101414220/quantized/to_f16" type="Convert" version="opset1">
			<data destination_type="f16"/>
			<input>
				<port id="0">
					<dim>320</dim>
					<dim>160</dim>
					<dim>3</dim>
					<dim>3</dim>
				</port>
			</input>
			<output>
				<port id="1" precision="FP16">
					<dim>320</dim>
					<dim>160</dim>
					<dim>3</dim>
					<dim>3</dim>
				</port>
			</output>
		</layer>
		<layer id="472" name="Conv_85/WithoutBiases/fq_weights_1/zero_point1743829231" type="Const" version="opset1">
			<data element_type="f16" offset="899548" shape="320,1,1,1" size="640"/>
			<output>
				<port id="0" precision="FP16">
					<dim>320</dim>
					<dim>1</dim>
					<dim>1</dim>
					<dim>1</dim>
				</port>
			</output>
		</layer>
		<layer id="473" name="Conv_85/WithoutBiases/fq_weights_1/minus_zp" type="Subtract" version="opset1">
			<data auto_broadcast="numpy"/>
			<input>
				<port id="0">
					<dim>320</dim>
					<dim>160</dim>
					<dim>3</dim>
					<dim>3</dim>
				</port>
				<port id="1">
					<dim>320</dim>
					<dim>1</dim>
					<dim>1</dim>
					<dim>1</dim>
				</port>
			</input>
			<output>
				<port id="2" precision="FP16">
					<dim>320</dim>
					<dim>160</dim>
					<dim>3</dim>
					<dim>3</dim>
				</port>
			</output>
		</layer>
		<layer id="474" name="Conv_85/WithoutBiases/fq_weights_1/scale1742728142" type="Const" version="opset1">
			<data element_type="f16" offset="900188" shape="320,1,1,1" size="640"/>
			<output>
				<port id="0" precision="FP16">
					<dim>320</dim>
					<dim>1</dim>
					<dim>1</dim>
					<dim>1</dim>
				</port>
			</output>
		</layer>
		<layer id="475" name="Conv_85/WithoutBiases/fq_weights_1/mulpiply_by_scale" type="Multiply" version="opset1">
			<data auto_broadcast="numpy"/>
			<input>
				<port id="0">
					<dim>320</dim>
					<dim>160</dim>
					<dim>3</dim>
					<dim>3</dim>
				</port>
				<port id="1">
					<dim>320</dim>
					<dim>1</dim>
					<dim>1</dim>
					<dim>1</dim>
				</port>
			</input>
			<output>
				<port id="2" precision="FP16">
					<dim>320</dim>
					<dim>160</dim>
					<dim>3</dim>
					<dim>3</dim>
				</port>
			</output>
		</layer>
		<layer id="476" name="Conv_85/WithoutBiases" type="Convolution" version="opset1">
			<data auto_pad="explicit" dilations="1,1" pads_begin="1,1" pads_end="1,1" strides="2,2"/>
			<input>
				<port id="0">
					<dim>1</dim>
					<dim>160</dim>
					<dim>160</dim>
					<dim>160</dim>
				</port>
				<port id="1">
					<dim>320</dim>
					<dim>160</dim>
					<dim>3</dim>
					<dim>3</dim>
				</port>
			</input>
			<output>
				<port id="2" precision="FP16">
					<dim>1</dim>
					<dim>320</dim>
					<dim>80</dim>
					<dim>80</dim>
				</port>
			</output>
		</layer>
		<layer id="477" name="Conv_85/Dims7529101626927" type="Const" version="opset1">
			<data element_type="f16" offset="900828" shape="1,320,1,1" size="640"/>
			<output>
				<port id="0" precision="FP16">
					<dim>1</dim>
					<dim>320</dim>
					<dim>1</dim>
					<dim>1</dim>
				</port>
			</output>
		</layer>
		<layer id="478" name="Conv_85" type="Add" version="opset1">
			<data auto_broadcast="numpy"/>
			<input>
				<port id="0">
					<dim>1</dim>
					<dim>320</dim>
					<dim>80</dim>
					<dim>80</dim>
				</port>
				<port id="1">
					<dim>1</dim>
					<dim>320</dim>
					<dim>1</dim>
					<dim>1</dim>
				</port>
			</input>
			<output>
				<port id="2" names="onnx::Sigmoid_1655" precision="FP16">
					<dim>1</dim>
					<dim>320</dim>
					<dim>80</dim>
					<dim>80</dim>
				</port>
			</output>
		</layer>
		<layer id="479" name="Mul_87" type="Swish" version="opset4">
			<input>
				<port id="0">
					<dim>1</dim>
					<dim>320</dim>
					<dim>80</dim>
					<dim>80</dim>
				</port>
			</input>
			<output>
				<port id="1" names="input.107" precision="FP16">
					<dim>1</dim>
					<dim>320</dim>
					<dim>80</dim>
					<dim>80</dim>
				</port>
			</output>
		</layer>
		<layer id="480" name="Conv_88/WithoutBiases/fq_input_0" type="FakeQuantize" version="opset1">
			<data auto_broadcast="numpy" levels="256"/>
			<input>
				<port id="0">
					<dim>1</dim>
					<dim>320</dim>
					<dim>80</dim>
					<dim>80</dim>
				</port>
				<port id="1"/>
				<port id="2"/>
				<port id="3"/>
				<port id="4"/>
			</input>
			<output>
				<port id="5" precision="FP16">
					<dim>1</dim>
					<dim>320</dim>
					<dim>80</dim>
					<dim>80</dim>
				</port>
			</output>
		</layer>
		<layer id="481" name="onnx::Conv_1659101914222/quantized1765927656" type="Const" version="opset1">
			<data element_type="i8" offset="901468" shape="160,320,1,1" size="51200"/>
			<output>
				<port id="0" precision="I8">
					<dim>160</dim>
					<dim>320</dim>
					<dim>1</dim>
					<dim>1</dim>
				</port>
			</output>
		</layer>
		<layer id="482" name="onnx::Conv_1659101914222/quantized/to_f16" type="Convert" version="opset1">
			<data destination_type="f16"/>
			<input>
				<port id="0">
					<dim>160</dim>
					<dim>320</dim>
					<dim>1</dim>
					<dim>1</dim>
				</port>
			</input>
			<output>
				<port id="1" precision="FP16">
					<dim>160</dim>
					<dim>320</dim>
					<dim>1</dim>
					<dim>1</dim>
				</port>
			</output>
		</layer>
		<layer id="483" name="Conv_88/WithoutBiases/fq_weights_1/zero_point1767827443" type="Const" version="opset1">
			<data element_type="f16" offset="952668" shape="160,1,1,1" size="320"/>
			<output>
				<port id="0" precision="FP16">
					<dim>160</dim>
					<dim>1</dim>
					<dim>1</dim>
					<dim>1</dim>
				</port>
			</output>
		</layer>
		<layer id="484" name="Conv_88/WithoutBiases/fq_weights_1/minus_zp" type="Subtract" version="opset1">
			<data auto_broadcast="numpy"/>
			<input>
				<port id="0">
					<dim>160</dim>
					<dim>320</dim>
					<dim>1</dim>
					<dim>1</dim>
				</port>
				<port id="1">
					<dim>160</dim>
					<dim>1</dim>
					<dim>1</dim>
					<dim>1</dim>
				</port>
			</input>
			<output>
				<port id="2" precision="FP16">
					<dim>160</dim>
					<dim>320</dim>
					<dim>1</dim>
					<dim>1</dim>
				</port>
			</output>
		</layer>
		<layer id="485" name="Conv_88/WithoutBiases/fq_weights_1/scale1766726777" type="Const" version="opset1">
			<data element_type="f16" offset="952988" shape="160,1,1,1" size="320"/>
			<output>
				<port id="0" precision="FP16">
					<dim>160</dim>
					<dim>1</dim>
					<dim>1</dim>
					<dim>1</dim>
				</port>
			</output>
		</layer>
		<layer id="486" name="Conv_88/WithoutBiases/fq_weights_1/mulpiply_by_scale" type="Multiply" version="opset1">
			<data auto_broadcast="numpy"/>
			<input>
				<port id="0">
					<dim>160</dim>
					<dim>320</dim>
					<dim>1</dim>
					<dim>1</dim>
				</port>
				<port id="1">
					<dim>160</dim>
					<dim>1</dim>
					<dim>1</dim>
					<dim>1</dim>
				</port>
			</input>
			<output>
				<port id="2" precision="FP16">
					<dim>160</dim>
					<dim>320</dim>
					<dim>1</dim>
					<dim>1</dim>
				</port>
			</output>
		</layer>
		<layer id="487" name="Conv_88/WithoutBiases" type="Convolution" version="opset1">
			<data auto_pad="explicit" dilations="1,1" pads_begin="0,0" pads_end="0,0" strides="1,1"/>
			<input>
				<port id="0">
					<dim>1</dim>
					<dim>320</dim>
					<dim>80</dim>
					<dim>80</dim>
				</port>
				<port id="1">
					<dim>160</dim>
					<dim>320</dim>
					<dim>1</dim>
					<dim>1</dim>
				</port>
			</input>
			<output>
				<port id="2" precision="FP16">
					<dim>1</dim>
					<dim>160</dim>
					<dim>80</dim>
					<dim>80</dim>
				</port>
			</output>
		</layer>
		<layer id="488" name="Conv_88/Dims7241102128967" type="Const" version="opset1">
			<data element_type="f16" offset="953308" shape="1,160,1,1" size="320"/>
			<output>
				<port id="0" precision="FP16">
					<dim>1</dim>
					<dim>160</dim>
					<dim>1</dim>
					<dim>1</dim>
				</port>
			</output>
		</layer>
		<layer id="489" name="Conv_88" type="Add" version="opset1">
			<data auto_broadcast="numpy"/>
			<input>
				<port id="0">
					<dim>1</dim>
					<dim>160</dim>
					<dim>80</dim>
					<dim>80</dim>
				</port>
				<port id="1">
					<dim>1</dim>
					<dim>160</dim>
					<dim>1</dim>
					<dim>1</dim>
				</port>
			</input>
			<output>
				<port id="2" names="onnx::Sigmoid_1658" precision="FP16">
					<dim>1</dim>
					<dim>160</dim>
					<dim>80</dim>
					<dim>80</dim>
				</port>
			</output>
		</layer>
		<layer id="490" name="Mul_90" type="Swish" version="opset4">
			<input>
				<port id="0">
					<dim>1</dim>
					<dim>160</dim>
					<dim>80</dim>
					<dim>80</dim>
				</port>
			</input>
			<output>
				<port id="1" names="input.115" precision="FP16">
					<dim>1</dim>
					<dim>160</dim>
					<dim>80</dim>
					<dim>80</dim>
				</port>
			</output>
		</layer>
		<layer id="491" name="Add_100/fq_input_1" type="FakeQuantize" version="opset1">
			<data auto_broadcast="numpy" levels="256"/>
			<input>
				<port id="0">
					<dim>1</dim>
					<dim>160</dim>
					<dim>80</dim>
					<dim>80</dim>
				</port>
				<port id="1"/>
				<port id="2"/>
				<port id="3"/>
				<port id="4"/>
			</input>
			<output>
				<port id="5" precision="FP16">
					<dim>1</dim>
					<dim>160</dim>
					<dim>80</dim>
					<dim>80</dim>
				</port>
			</output>
		</layer>
		<layer id="492" name="onnx::Conv_1665102414224/quantized1831927497" type="Const" version="opset1">
			<data element_type="i8" offset="953628" shape="160,160,1,1" size="25600"/>
			<output>
				<port id="0" precision="I8">
					<dim>160</dim>
					<dim>160</dim>
					<dim>1</dim>
					<dim>1</dim>
				</port>
			</output>
		</layer>
		<layer id="493" name="onnx::Conv_1665102414224/quantized/to_f16" type="Convert" version="opset1">
			<data destination_type="f16"/>
			<input>
				<port id="0">
					<dim>160</dim>
					<dim>160</dim>
					<dim>1</dim>
					<dim>1</dim>
				</port>
			</input>
			<output>
				<port id="1" precision="FP16">
					<dim>160</dim>
					<dim>160</dim>
					<dim>1</dim>
					<dim>1</dim>
				</port>
			</output>
		</layer>
		<layer id="494" name="Conv_94/WithoutBiases/fq_weights_1/zero_point1833829855" type="Const" version="opset1">
			<data element_type="f16" offset="979228" shape="160,1,1,1" size="320"/>
			<output>
				<port id="0" precision="FP16">
					<dim>160</dim>
					<dim>1</dim>
					<dim>1</dim>
					<dim>1</dim>
				</port>
			</output>
		</layer>
		<layer id="495" name="Conv_94/WithoutBiases/fq_weights_1/minus_zp" type="Subtract" version="opset1">
			<data auto_broadcast="numpy"/>
			<input>
				<port id="0">
					<dim>160</dim>
					<dim>160</dim>
					<dim>1</dim>
					<dim>1</dim>
				</port>
				<port id="1">
					<dim>160</dim>
					<dim>1</dim>
					<dim>1</dim>
					<dim>1</dim>
				</port>
			</input>
			<output>
				<port id="2" precision="FP16">
					<dim>160</dim>
					<dim>160</dim>
					<dim>1</dim>
					<dim>1</dim>
				</port>
			</output>
		</layer>
		<layer id="496" name="Conv_94/WithoutBiases/fq_weights_1/scale1832726657" type="Const" version="opset1">
			<data element_type="f16" offset="979548" shape="160,1,1,1" size="320"/>
			<output>
				<port id="0" precision="FP16">
					<dim>160</dim>
					<dim>1</dim>
					<dim>1</dim>
					<dim>1</dim>
				</port>
			</output>
		</layer>
		<layer id="497" name="Conv_94/WithoutBiases/fq_weights_1/mulpiply_by_scale" type="Multiply" version="opset1">
			<data auto_broadcast="numpy"/>
			<input>
				<port id="0">
					<dim>160</dim>
					<dim>160</dim>
					<dim>1</dim>
					<dim>1</dim>
				</port>
				<port id="1">
					<dim>160</dim>
					<dim>1</dim>
					<dim>1</dim>
					<dim>1</dim>
				</port>
			</input>
			<output>
				<port id="2" precision="FP16">
					<dim>160</dim>
					<dim>160</dim>
					<dim>1</dim>
					<dim>1</dim>
				</port>
			</output>
		</layer>
		<layer id="498" name="Conv_94/WithoutBiases" type="Convolution" version="opset1">
			<data auto_pad="explicit" dilations="1,1" pads_begin="0,0" pads_end="0,0" strides="1,1"/>
			<input>
				<port id="0">
					<dim>1</dim>
					<dim>160</dim>
					<dim>80</dim>
					<dim>80</dim>
				</port>
				<port id="1">
					<dim>160</dim>
					<dim>160</dim>
					<dim>1</dim>
					<dim>1</dim>
				</port>
			</input>
			<output>
				<port id="2" precision="FP16">
					<dim>1</dim>
					<dim>160</dim>
					<dim>80</dim>
					<dim>80</dim>
				</port>
…
		<edge from-layer="4" from-port="0" to-layer="1908" to-port="1"/>
		<edge from-layer="5" from-port="0" to-layer="1908" to-port="2"/>
		<edge from-layer="6" from-port="0" to-layer="1908" to-port="3"/>
		<edge from-layer="7" from-port="0" to-layer="1908" to-port="4"/>
		<edge from-layer="1909" from-port="0" to-layer="1910" to-port="0"/>
		<edge from-layer="1910" from-port="1" to-layer="1912" to-port="0"/>
		<edge from-layer="1911" from-port="0" to-layer="1912" to-port="1"/>
		<edge from-layer="1912" from-port="2" to-layer="1914" to-port="0"/>
		<edge from-layer="1913" from-port="0" to-layer="1914" to-port="1"/>
		<edge from-layer="1908" from-port="5" to-layer="1915" to-port="0"/>
		<edge from-layer="1914" from-port="2" to-layer="1915" to-port="1"/>
		<edge from-layer="1915" from-port="2" to-layer="1917" to-port="0"/>
		<edge from-layer="1916" from-port="0" to-layer="1917" to-port="1"/>
		<edge from-layer="1917" from-port="2" to-layer="1918" to-port="0"/>
		<edge from-layer="1918" from-port="1" to-layer="1919" to-port="0"/>
		<edge from-layer="0" from-port="0" to-layer="1919" to-port="1"/>
		<edge from-layer="1" from-port="0" to-layer="1919" to-port="2"/>
		<edge from-layer="2" from-port="0" to-layer="1919" to-port="3"/>
		<edge from-layer="3" from-port="0" to-layer="1919" to-port="4"/>
		<edge from-layer="1920" from-port="0" to-layer="1921" to-port="0"/>
		<edge from-layer="1921" from-port="1" to-layer="1923" to-port="0"/>
		<edge from-layer="1922" from-port="0" to-layer="1923" to-port="1"/>
		<edge from-layer="1923" from-port="2" to-layer="1925" to-port="0"/>
		<edge from-layer="1924" from-port="0" to-layer="1925" to-port="1"/>
		<edge from-layer="1919" from-port="5" to-layer="1926" to-port="0"/>
		<edge from-layer="1925" from-port="2" to-layer="1926" to-port="1"/>
		<edge from-layer="1926" from-port="2" to-layer="1928" to-port="0"/>
		<edge from-layer="1927" from-port="0" to-layer="1928" to-port="1"/>
		<edge from-layer="1929" from-port="0" to-layer="1930" to-port="0"/>
		<edge from-layer="1930" from-port="1" to-layer="1932" to-port="0"/>
		<edge from-layer="1931" from-port="0" to-layer="1932" to-port="1"/>
		<edge from-layer="1932" from-port="2" to-layer="1934" to-port="0"/>
		<edge from-layer="1933" from-port="0" to-layer="1934" to-port="1"/>
		<edge from-layer="1919" from-port="5" to-layer="1935" to-port="0"/>
		<edge from-layer="1934" from-port="2" to-layer="1935" to-port="1"/>
		<edge from-layer="1935" from-port="2" to-layer="1937" to-port="0"/>
		<edge from-layer="1936" from-port="0" to-layer="1937" to-port="1"/>
		<edge from-layer="1937" from-port="2" to-layer="1938" to-port="0"/>
		<edge from-layer="1947" from-port="0" to-layer="1948" to-port="0"/>
		<edge from-layer="1948" from-port="1" to-layer="1950" to-port="0"/>
		<edge from-layer="1949" from-port="0" to-layer="1950" to-port="1"/>
		<edge from-layer="1950" from-port="2" to-layer="1952" to-port="0"/>
		<edge from-layer="1951" from-port="0" to-layer="1952" to-port="1"/>
		<edge from-layer="1897" from-port="5" to-layer="1953" to-port="0"/>
		<edge from-layer="1952" from-port="2" to-layer="1953" to-port="1"/>
		<edge from-layer="1953" from-port="2" to-layer="1955" to-port="0"/>
		<edge from-layer="1954" from-port="0" to-layer="1955" to-port="1"/>
		<edge from-layer="1955" from-port="2" to-layer="1956" to-port="0"/>
		<edge from-layer="1956" from-port="1" to-layer="1957" to-port="0"/>
		<edge from-layer="1943" from-port="0" to-layer="1957" to-port="1"/>
		<edge from-layer="1944" from-port="0" to-layer="1957" to-port="2"/>
		<edge from-layer="1945" from-port="0" to-layer="1957" to-port="3"/>
		<edge from-layer="1946" from-port="0" to-layer="1957" to-port="4"/>
		<edge from-layer="1958" from-port="0" to-layer="1959" to-port="0"/>
		<edge from-layer="1959" from-port="1" to-layer="1961" to-port="0"/>
		<edge from-layer="1960" from-port="0" to-layer="1961" to-port="1"/>
		<edge from-layer="1961" from-port="2" to-layer="1963" to-port="0"/>
		<edge from-layer="1962" from-port="0" to-layer="1963" to-port="1"/>
		<edge from-layer="1957" from-port="5" to-layer="1964" to-port="0"/>
		<edge from-layer="1963" from-port="2" to-layer="1964" to-port="1"/>
		<edge from-layer="1964" from-port="2" to-layer="1966" to-port="0"/>
		<edge from-layer="1965" from-port="0" to-layer="1966" to-port="1"/>
		<edge from-layer="1966" from-port="2" to-layer="1967" to-port="0"/>
		<edge from-layer="1967" from-port="1" to-layer="1968" to-port="0"/>
		<edge from-layer="1939" from-port="0" to-layer="1968" to-port="1"/>
		<edge from-layer="1940" from-port="0" to-layer="1968" to-port="2"/>
		<edge from-layer="1941" from-port="0" to-layer="1968" to-port="3"/>
		<edge from-layer="1942" from-port="0" to-layer="1968" to-port="4"/>
		<edge from-layer="1969" from-port="0" to-layer="1970" to-port="0"/>
		<edge from-layer="1970" from-port="1" to-layer="1972" to-port="0"/>
		<edge from-layer="1971" from-port="0" to-layer="1972" to-port="1"/>
		<edge from-layer="1972" from-port="2" to-layer="1974" to-port="0"/>
		<edge from-layer="1973" from-port="0" to-layer="1974" to-port="1"/>
		<edge from-layer="1968" from-port="5" to-layer="1975" to-port="0"/>
		<edge from-layer="1974" from-port="2" to-layer="1975" to-port="1"/>
		<edge from-layer="1975" from-port="2" to-layer="1977" to-port="0"/>
		<edge from-layer="1976" from-port="0" to-layer="1977" to-port="1"/>
		<edge from-layer="1977" from-port="2" to-layer="1978" to-port="0"/>
		<edge from-layer="1928" from-port="2" to-layer="1979" to-port="0"/>
		<edge from-layer="1938" from-port="1" to-layer="1979" to-port="1"/>
		<edge from-layer="1978" from-port="1" to-layer="1979" to-port="2"/>
		<edge from-layer="1979" from-port="3" to-layer="1981" to-port="0"/>
		<edge from-layer="1980" from-port="0" to-layer="1981" to-port="1"/>
		<edge from-layer="2038" from-port="0" to-layer="2039" to-port="0"/>
		<edge from-layer="2039" from-port="1" to-layer="2041" to-port="0"/>
		<edge from-layer="2040" from-port="0" to-layer="2041" to-port="1"/>
		<edge from-layer="2041" from-port="2" to-layer="2043" to-port="0"/>
		<edge from-layer="2042" from-port="0" to-layer="2043" to-port="1"/>
		<edge from-layer="1886" from-port="5" to-layer="2044" to-port="0"/>
		<edge from-layer="2043" from-port="2" to-layer="2044" to-port="1"/>
		<edge from-layer="2044" from-port="2" to-layer="2046" to-port="0"/>
		<edge from-layer="2045" from-port="0" to-layer="2046" to-port="1"/>
		<edge from-layer="2046" from-port="2" to-layer="2047" to-port="0"/>
		<edge from-layer="2047" from-port="1" to-layer="2048" to-port="0"/>
		<edge from-layer="2034" from-port="0" to-layer="2048" to-port="1"/>
		<edge from-layer="2035" from-port="0" to-layer="2048" to-port="2"/>
		<edge from-layer="2036" from-port="0" to-layer="2048" to-port="3"/>
		<edge from-layer="2037" from-port="0" to-layer="2048" to-port="4"/>
		<edge from-layer="2048" from-port="5" to-layer="2049" to-port="0"/>
		<edge from-layer="1747" from-port="5" to-layer="2049" to-port="1"/>
		<edge from-layer="2050" from-port="0" to-layer="2051" to-port="0"/>
		<edge from-layer="2051" from-port="1" to-layer="2053" to-port="0"/>
		<edge from-layer="2052" from-port="0" to-layer="2053" to-port="1"/>
		<edge from-layer="2053" from-port="2" to-layer="2055" to-port="0"/>
		<edge from-layer="2054" from-port="0" to-layer="2055" to-port="1"/>
		<edge from-layer="2049" from-port="2" to-layer="2056" to-port="0"/>
		<edge from-layer="2055" from-port="2" to-layer="2056" to-port="1"/>
		<edge from-layer="2056" from-port="2" to-layer="2058" to-port="0"/>
		<edge from-layer="2057" from-port="0" to-layer="2058" to-port="1"/>
		<edge from-layer="2058" from-port="2" to-layer="2059" to-port="0"/>
		<edge from-layer="2059" from-port="1" to-layer="2060" to-port="0"/>
		<edge from-layer="2030" from-port="0" to-layer="2060" to-port="1"/>
		<edge from-layer="2031" from-port="0" to-layer="2060" to-port="2"/>
		<edge from-layer="2032" from-port="0" to-layer="2060" to-port="3"/>
		<edge from-layer="2033" from-port="0" to-layer="2060" to-port="4"/>
		<edge from-layer="2061" from-port="0" to-layer="2062" to-port="0"/>
		<edge from-layer="2062" from-port="1" to-layer="2064" to-port="0"/>
		<edge from-layer="2063" from-port="0" to-layer="2064" to-port="1"/>
		<edge from-layer="2064" from-port="2" to-layer="2066" to-port="0"/>
		<edge from-layer="2065" from-port="0" to-layer="2066" to-port="1"/>
		<edge from-layer="2060" from-port="5" to-layer="2067" to-port="0"/>
		<edge from-layer="2066" from-port="2" to-layer="2067" to-port="1"/>
		<edge from-layer="2067" from-port="2" to-layer="2069" to-port="0"/>
		<edge from-layer="2068" from-port="0" to-layer="2069" to-port="1"/>
		<edge from-layer="2069" from-port="2" to-layer="2070" to-port="0"/>
		<edge from-layer="2070" from-port="1" to-layer="2071" to-port="0"/>
		<edge from-layer="2026" from-port="0" to-layer="2071" to-port="1"/>
		<edge from-layer="2027" from-port="0" to-layer="2071" to-port="2"/>
		<edge from-layer="2028" from-port="0" to-layer="2071" to-port="3"/>
		<edge from-layer="2029" from-port="0" to-layer="2071" to-port="4"/>
		<edge from-layer="2072" from-port="0" to-layer="2073" to-port="0"/>
		<edge from-layer="2073" from-port="1" to-layer="2075" to-port="0"/>
		<edge from-layer="2074" from-port="0" to-layer="2075" to-port="1"/>
		<edge from-layer="2075" from-port="2" to-layer="2077" to-port="0"/>
		<edge from-layer="2076" from-port="0" to-layer="2077" to-port="1"/>
		<edge from-layer="2071" from-port="5" to-layer="2078" to-port="0"/>
		<edge from-layer="2077" from-port="2" to-layer="2078" to-port="1"/>
		<edge from-layer="2078" from-port="2" to-layer="2080" to-port="0"/>
		<edge from-layer="2079" from-port="0" to-layer="2080" to-port="1"/>
		<edge from-layer="2080" from-port="2" to-layer="2081" to-port="0"/>
		<edge from-layer="2081" from-port="1" to-layer="2082" to-port="0"/>
		<edge from-layer="2022" from-port="0" to-layer="2082" to-port="1"/>
		<edge from-layer="2023" from-port="0" to-layer="2082" to-port="2"/>
		<edge from-layer="2024" from-port="0" to-layer="2082" to-port="3"/>
		<edge from-layer="2025" from-port="0" to-layer="2082" to-port="4"/>
		<edge from-layer="2083" from-port="0" to-layer="2084" to-port="0"/>
		<edge from-layer="2084" from-port="1" to-layer="2086" to-port="0"/>
		<edge from-layer="2085" from-port="0" to-layer="2086" to-port="1"/>
		<edge from-layer="2086" from-port="2" to-layer="2088" to-port="0"/>
		<edge from-layer="2087" from-port="0" to-layer="2088" to-port="1"/>
		<edge from-layer="2082" from-port="5" to-layer="2089" to-port="0"/>
		<edge from-layer="2088" from-port="2" to-layer="2089" to-port="1"/>
		<edge from-layer="2089" from-port="2" to-layer="2091" to-port="0"/>
		<edge from-layer="2090" from-port="0" to-layer="2091" to-port="1"/>
		<edge from-layer="2091" from-port="2" to-layer="2092" to-port="0"/>
		<edge from-layer="2092" from-port="1" to-layer="2093" to-port="0"/>
		<edge from-layer="2018" from-port="0" to-layer="2093" to-port="1"/>
		<edge from-layer="2019" from-port="0" to-layer="2093" to-port="2"/>
		<edge from-layer="2020" from-port="0" to-layer="2093" to-port="3"/>
		<edge from-layer="2021" from-port="0" to-layer="2093" to-port="4"/>
		<edge from-layer="2094" from-port="0" to-layer="2095" to-port="0"/>
		<edge from-layer="2095" from-port="1" to-layer="2097" to-port="0"/>
		<edge from-layer="2096" from-port="0" to-layer="2097" to-port="1"/>
		<edge from-layer="2097" from-port="2" to-layer="2099" to-port="0"/>
		<edge from-layer="2098" from-port="0" to-layer="2099" to-port="1"/>
		<edge from-layer="2093" from-port="5" to-layer="2100" to-port="0"/>
		<edge from-layer="2099" from-port="2" to-layer="2100" to-port="1"/>
		<edge from-layer="2100" from-port="2" to-layer="2102" to-port="0"/>
		<edge from-layer="2101" from-port="0" to-layer="2102" to-port="1"/>
		<edge from-layer="2102" from-port="2" to-layer="2103" to-port="0"/>
		<edge from-layer="2103" from-port="1" to-layer="2104" to-port="0"/>
		<edge from-layer="2014" from-port="0" to-layer="2104" to-port="1"/>
		<edge from-layer="2015" from-port="0" to-layer="2104" to-port="2"/>
		<edge from-layer="2016" from-port="0" to-layer="2104" to-port="3"/>
		<edge from-layer="2017" from-port="0" to-layer="2104" to-port="4"/>
		<edge from-layer="2105" from-port="0" to-layer="2106" to-port="0"/>
		<edge from-layer="2106" from-port="1" to-layer="2108" to-port="0"/>
		<edge from-layer="2107" from-port="0" to-layer="2108" to-port="1"/>
		<edge from-layer="2108" from-port="2" to-layer="2110" to-port="0"/>
		<edge from-layer="2109" from-port="0" to-layer="2110" to-port="1"/>
		<edge from-layer="2104" from-port="5" to-layer="2111" to-port="0"/>
		<edge from-layer="2110" from-port="2" to-layer="2111" to-port="1"/>
		<edge from-layer="2111" from-port="2" to-layer="2113" to-port="0"/>
		<edge from-layer="2112" from-port="0" to-layer="2113" to-port="1"/>
		<edge from-layer="2113" from-port="2" to-layer="2114" to-port="0"/>
		<edge from-layer="2114" from-port="1" to-layer="2115" to-port="0"/>
		<edge from-layer="2010" from-port="0" to-layer="2115" to-port="1"/>
		<edge from-layer="2011" from-port="0" to-layer="2115" to-port="2"/>
		<edge from-layer="2012" from-port="0" to-layer="2115" to-port="3"/>
		<edge from-layer="2013" from-port="0" to-layer="2115" to-port="4"/>
		<edge from-layer="2116" from-port="0" to-layer="2117" to-port="0"/>
		<edge from-layer="2117" from-port="1" to-layer="2119" to-port="0"/>
		<edge from-layer="2118" from-port="0" to-layer="2119" to-port="1"/>
		<edge from-layer="2119" from-port="2" to-layer="2121" to-port="0"/>
		<edge from-layer="2120" from-port="0" to-layer="2121" to-port="1"/>
		<edge from-layer="2115" from-port="5" to-layer="2122" to-port="0"/>
		<edge from-layer="2121" from-port="2" to-layer="2122" to-port="1"/>
		<edge from-layer="2122" from-port="2" to-layer="2124" to-port="0"/>
		<edge from-layer="2123" from-port="0" to-layer="2124" to-port="1"/>
		<edge from-layer="2124" from-port="2" to-layer="2125" to-port="0"/>
		<edge from-layer="2125" from-port="1" to-layer="2126" to-port="0"/>
		<edge from-layer="2006" from-port="0" to-layer="2126" to-port="1"/>
		<edge from-layer="2007" from-port="0" to-layer="2126" to-port="2"/>
		<edge from-layer="2008" from-port="0" to-layer="2126" to-port="3"/>
		<edge from-layer="2009" from-port="0" to-layer="2126" to-port="4"/>
		<edge from-layer="2127" from-port="0" to-layer="2128" to-port="0"/>
		<edge from-layer="2128" from-port="1" to-layer="2130" to-port="0"/>
		<edge from-layer="2129" from-port="0" to-layer="2130" to-port="1"/>
		<edge from-layer="2130" from-port="2" to-layer="2132" to-port="0"/>
		<edge from-layer="2131" from-port="0" to-layer="2132" to-port="1"/>
		<edge from-layer="2126" from-port="5" to-layer="2133" to-port="0"/>
		<edge from-layer="2132" from-port="2" to-layer="2133" to-port="1"/>
		<edge from-layer="2133" from-port="2" to-layer="2135" to-port="0"/>
		<edge from-layer="2134" from-port="0" to-layer="2135" to-port="1"/>
		<edge from-layer="2135" from-port="2" to-layer="2136" to-port="0"/>
		<edge from-layer="2136" from-port="1" to-layer="2137" to-port="0"/>
		<edge from-layer="2002" from-port="0" to-layer="2137" to-port="1"/>
		<edge from-layer="2003" from-port="0" to-layer="2137" to-port="2"/>
		<edge from-layer="2004" from-port="0" to-layer="2137" to-port="3"/>
		<edge from-layer="2005" from-port="0" to-layer="2137" to-port="4"/>
		<edge from-layer="2138" from-port="0" to-layer="2139" to-port="0"/>
		<edge from-layer="2139" from-port="1" to-layer="2141" to-port="0"/>
		<edge from-layer="2140" from-port="0" to-layer="2141" to-port="1"/>
		<edge from-layer="2141" from-port="2" to-layer="2143" to-port="0"/>
		<edge from-layer="2142" from-port="0" to-layer="2143" to-port="1"/>
		<edge from-layer="2137" from-port="5" to-layer="2144" to-port="0"/>
		<edge from-layer="2143" from-port="2" to-layer="2144" to-port="1"/>
		<edge from-layer="2144" from-port="2" to-layer="2146" to-port="0"/>
		<edge from-layer="2145" from-port="0" to-layer="2146" to-port="1"/>
		<edge from-layer="2146" from-port="2" to-layer="2147" to-port="0"/>
		<edge from-layer="2147" from-port="1" to-layer="2148" to-port="0"/>
		<edge from-layer="1998" from-port="0" to-layer="2148" to-port="1"/>
		<edge from-layer="1999" from-port="0" to-layer="2148" to-port="2"/>
		<edge from-layer="2000" from-port="0" to-layer="2148" to-port="3"/>
		<edge from-layer="2001" from-port="0" to-layer="2148" to-port="4"/>
		<edge from-layer="2153" from-port="0" to-layer="2154" to-port="0"/>
		<edge from-layer="2154" from-port="1" to-layer="2156" to-port="0"/>
		<edge from-layer="2155" from-port="0" to-layer="2156" to-port="1"/>
		<edge from-layer="2156" from-port="2" to-layer="2158" to-port="0"/>
		<edge from-layer="2157" from-port="0" to-layer="2158" to-port="1"/>
		<edge from-layer="2049" from-port="2" to-layer="2159" to-port="0"/>
		<edge from-layer="2158" from-port="2" to-layer="2159" to-port="1"/>
		<edge from-layer="2159" from-port="2" to-layer="2161" to-port="0"/>
		<edge from-layer="2160" from-port="0" to-layer="2161" to-port="1"/>
		<edge from-layer="2161" from-port="2" to-layer="2162" to-port="0"/>
		<edge from-layer="2162" from-port="1" to-layer="2163" to-port="0"/>
		<edge from-layer="2149" from-port="0" to-layer="2163" to-port="1"/>
		<edge from-layer="2150" from-port="0" to-layer="2163" to-port="2"/>
		<edge from-layer="2151" from-port="0" to-layer="2163" to-port="3"/>
		<edge from-layer="2152" from-port="0" to-layer="2163" to-port="4"/>
		<edge from-layer="2148" from-port="5" to-layer="2164" to-port="0"/>
		<edge from-layer="2163" from-port="5" to-layer="2164" to-port="1"/>
		<edge from-layer="2165" from-port="0" to-layer="2166" to-port="0"/>
		<edge from-layer="2166" from-port="1" to-layer="2168" to-port="0"/>
		<edge from-layer="2167" from-port="0" to-layer="2168" to-port="1"/>
		<edge from-layer="2168" from-port="2" to-layer="2170" to-port="0"/>
		<edge from-layer="2169" from-port="0" to-layer="2170" to-port="1"/>
		<edge from-layer="2164" from-port="2" to-layer="2171" to-port="0"/>
		<edge from-layer="2170" from-port="2" to-layer="2171" to-port="1"/>
		<edge from-layer="2171" from-port="2" to-layer="2173" to-port="0"/>
		<edge from-layer="2172" from-port="0" to-layer="2173" to-port="1"/>
		<edge from-layer="2173" from-port="2" to-layer="2174" to-port="0"/>
		<edge from-layer="2174" from-port="1" to-layer="2175" to-port="0"/>
		<edge from-layer="1994" from-port="0" to-layer="2175" to-port="1"/>
		<edge from-layer="1995" from-port="0" to-layer="2175" to-port="2"/>
		<edge from-layer="1996" from-port="0" to-layer="2175" to-port="3"/>
		<edge from-layer="1997" from-port="0" to-layer="2175" to-port="4"/>
		<edge from-layer="2176" from-port="0" to-layer="2177" to-port="0"/>
		<edge from-layer="2177" from-port="1" to-layer="2179" to-port="0"/>
		<edge from-layer="2178" from-port="0" to-layer="2179" to-port="1"/>
		<edge from-layer="2179" from-port="2" to-layer="2181" to-port="0"/>
		<edge from-layer="2180" from-port="0" to-layer="2181" to-port="1"/>
		<edge from-layer="2175" from-port="5" to-layer="2182" to-port="0"/>
		<edge from-layer="2181" from-port="2" to-layer="2182" to-port="1"/>
		<edge from-layer="2182" from-port="2" to-layer="2184" to-port="0"/>
		<edge from-layer="2183" from-port="0" to-layer="2184" to-port="1"/>
		<edge from-layer="2184" from-port="2" to-layer="2185" to-port="0"/>
		<edge from-layer="2185" from-port="1" to-layer="2186" to-port="0"/>
		<edge from-layer="1990" from-port="0" to-layer="2186" to-port="1"/>
		<edge from-layer="1991" from-port="0" to-layer="2186" to-port="2"/>
		<edge from-layer="1992" from-port="0" to-layer="2186" to-port="3"/>
		<edge from-layer="1993" from-port="0" to-layer="2186" to-port="4"/>
		<edge from-layer="2187" from-port="0" to-layer="2188" to-port="0"/>
		<edge from-layer="2188" from-port="1" to-layer="2190" to-port="0"/>
		<edge from-layer="2189" from-port="0" to-layer="2190" to-port="1"/>
		<edge from-layer="2190" from-port="2" to-layer="2192" to-port="0"/>
		<edge from-layer="2191" from-port="0" to-layer="2192" to-port="1"/>
		<edge from-layer="2186" from-port="5" to-layer="2193" to-port="0"/>
		<edge from-layer="2192" from-port="2" to-layer="2193" to-port="1"/>
		<edge from-layer="2193" from-port="2" to-layer="2195" to-port="0"/>
		<edge from-layer="2194" from-port="0" to-layer="2195" to-port="1"/>
		<edge from-layer="2195" from-port="2" to-layer="2196" to-port="0"/>
		<edge from-layer="2196" from-port="1" to-layer="2197" to-port="0"/>
		<edge from-layer="1986" from-port="0" to-layer="2197" to-port="1"/>
		<edge from-layer="1987" from-port="0" to-layer="2197" to-port="2"/>
		<edge from-layer="1988" from-port="0" to-layer="2197" to-port="3"/>
		<edge from-layer="1989" from-port="0" to-layer="2197" to-port="4"/>
		<edge from-layer="2198" from-port="0" to-layer="2199" to-port="0"/>
		<edge from-layer="2199" from-port="1" to-layer="2201" to-port="0"/>
		<edge from-layer="2200" from-port="0" to-layer="2201" to-port="1"/>
		<edge from-layer="2201" from-port="2" to-layer="2203" to-port="0"/>
		<edge from-layer="2202" from-port="0" to-layer="2203" to-port="1"/>
		<edge from-layer="2197" from-port="5" to-layer="2204" to-port="0"/>
		<edge from-layer="2203" from-port="2" to-layer="2204" to-port="1"/>
		<edge from-layer="2204" from-port="2" to-layer="2206" to-port="0"/>
		<edge from-layer="2205" from-port="0" to-layer="2206" to-port="1"/>
		<edge from-layer="2206" from-port="2" to-layer="2207" to-port="0"/>
		<edge from-layer="2207" from-port="1" to-layer="2208" to-port="0"/>
		<edge from-layer="1982" from-port="0" to-layer="2208" to-port="1"/>
		<edge from-layer="1983" from-port="0" to-layer="2208" to-port="2"/>
		<edge from-layer="1984" from-port="0" to-layer="2208" to-port="3"/>
		<edge from-layer="1985" from-port="0" to-layer="2208" to-port="4"/>
		<edge from-layer="2209" from-port="0" to-layer="2210" to-port="0"/>
		<edge from-layer="2210" from-port="1" to-layer="2212" to-port="0"/>
		<edge from-layer="2211" from-port="0" to-layer="2212" to-port="1"/>
		<edge from-layer="2212" from-port="2" to-layer="2214" to-port="0"/>
		<edge from-layer="2213" from-port="0" to-layer="2214" to-port="1"/>
		<edge from-layer="2208" from-port="5" to-layer="2215" to-port="0"/>
		<edge from-layer="2214" from-port="2" to-layer="2215" to-port="1"/>
		<edge from-layer="2215" from-port="2" to-layer="2217" to-port="0"/>
		<edge from-layer="2216" from-port="0" to-layer="2217" to-port="1"/>
		<edge from-layer="2218" from-port="0" to-layer="2219" to-port="0"/>
		<edge from-layer="2219" from-port="1" to-layer="2221" to-port="0"/>
		<edge from-layer="2220" from-port="0" to-layer="2221" to-port="1"/>
		<edge from-layer="2221" from-port="2" to-layer="2223" to-port="0"/>
		<edge from-layer="2222" from-port="0" to-layer="2223" to-port="1"/>
		<edge from-layer="2208" from-port="5" to-layer="2224" to-port="0"/>
		<edge from-layer="2223" from-port="2" to-layer="2224" to-port="1"/>
		<edge from-layer="2224" from-port="2" to-layer="2226" to-port="0"/>
		<edge from-layer="2225" from-port="0" to-layer="2226" to-port="1"/>
		<edge from-layer="2226" from-port="2" to-layer="2227" to-port="0"/>
		<edge from-layer="2236" from-port="0" to-layer="2237" to-port="0"/>
		<edge from-layer="2237" from-port="1" to-layer="2239" to-port="0"/>
		<edge from-layer="2238" from-port="0" to-layer="2239" to-port="1"/>
		<edge from-layer="2239" from-port="2" to-layer="2241" to-port="0"/>
		<edge from-layer="2240" from-port="0" to-layer="2241" to-port="1"/>
		<edge from-layer="2186" from-port="5" to-layer="2242" to-port="0"/>
		<edge from-layer="2241" from-port="2" to-layer="2242" to-port="1"/>
		<edge from-layer="2242" from-port="2" to-layer="2244" to-port="0"/>
		<edge from-layer="2243" from-port="0" to-layer="2244" to-port="1"/>
		<edge from-layer="2244" from-port="2" to-layer="2245" to-port="0"/>
		<edge from-layer="2245" from-port="1" to-layer="2246" to-port="0"/>
		<edge from-layer="2232" from-port="0" to-layer="2246" to-port="1"/>
		<edge from-layer="2233" from-port="0" to-layer="2246" to-port="2"/>
		<edge from-layer="2234" from-port="0" to-layer="2246" to-port="3"/>
		<edge from-layer="2235" from-port="0" to-layer="2246" to-port="4"/>
		<edge from-layer="2247" from-port="0" to-layer="2248" to-port="0"/>
		<edge from-layer="2248" from-port="1" to-layer="2250" to-port="0"/>
		<edge from-layer="2249" from-port="0" to-layer="2250" to-port="1"/>
		<edge from-layer="2250" from-port="2" to-layer="2252" to-port="0"/>
		<edge from-layer="2251" from-port="0" to-layer="2252" to-port="1"/>
		<edge from-layer="2246" from-port="5" to-layer="2253" to-port="0"/>
		<edge from-layer="2252" from-port="2" to-layer="2253" to-port="1"/>
		<edge from-layer="2253" from-port="2" to-layer="2255" to-port="0"/>
		<edge from-layer="2254" from-port="0" to-layer="2255" to-port="1"/>
		<edge from-layer="2255" from-port="2" to-layer="2256" to-port="0"/>
		<edge from-layer="2256" from-port="1" to-layer="2257" to-port="0"/>
		<edge from-layer="2228" from-port="0" to-layer="2257" to-port="1"/>
		<edge from-layer="2229" from-port="0" to-layer="2257" to-port="2"/>
		<edge from-layer="2230" from-port="0" to-layer="2257" to-port="3"/>
		<edge from-layer="2231" from-port="0" to-layer="2257" to-port="4"/>
		<edge from-layer="2258" from-port="0" to-layer="2259" to-port="0"/>
		<edge from-layer="2259" from-port="1" to-layer="2261" to-port="0"/>
		<edge from-layer="2260" from-port="0" to-layer="2261" to-port="1"/>
		<edge from-layer="2261" from-port="2" to-layer="2263" to-port="0"/>
		<edge from-layer="2262" from-port="0" to-layer="2263" to-port="1"/>
		<edge from-layer="2257" from-port="5" to-layer="2264" to-port="0"/>
		<edge from-layer="2263" from-port="2" to-layer="2264" to-port="1"/>
		<edge from-layer="2264" from-port="2" to-layer="2266" to-port="0"/>
		<edge from-layer="2265" from-port="0" to-layer="2266" to-port="1"/>
		<edge from-layer="2266" from-port="2" to-layer="2267" to-port="0"/>
		<edge from-layer="2217" from-port="2" to-layer="2268" to-port="0"/>
		<edge from-layer="2227" from-port="1" to-layer="2268" to-port="1"/>
		<edge from-layer="2267" from-port="1" to-layer="2268" to-port="2"/>
		<edge from-layer="2268" from-port="3" to-layer="2270" to-port="0"/>
		<edge from-layer="2269" from-port="0" to-layer="2270" to-port="1"/>
		<edge from-layer="2327" from-port="0" to-layer="2328" to-port="0"/>
		<edge from-layer="2328" from-port="1" to-layer="2330" to-port="0"/>
		<edge from-layer="2329" from-port="0" to-layer="2330" to-port="1"/>
		<edge from-layer="2330" from-port="2" to-layer="2332" to-port="0"/>
		<edge from-layer="2331" from-port="0" to-layer="2332" to-port="1"/>
		<edge from-layer="2175" from-port="5" to-layer="2333" to-port="0"/>
		<edge from-layer="2332" from-port="2" to-layer="2333" to-port="1"/>
		<edge from-layer="2333" from-port="2" to-layer="2335" to-port="0"/>
		<edge from-layer="2334" from-port="0" to-layer="2335" to-port="1"/>
		<edge from-layer="2335" from-port="2" to-layer="2336" to-port="0"/>
		<edge from-layer="2336" from-port="1" to-layer="2337" to-port="0"/>
		<edge from-layer="2323" from-port="0" to-layer="2337" to-port="1"/>
		<edge from-layer="2324" from-port="0" to-layer="2337" to-port="2"/>
		<edge from-layer="2325" from-port="0" to-layer="2337" to-port="3"/>
		<edge from-layer="2326" from-port="0" to-layer="2337" to-port="4"/>
		<edge from-layer="2337" from-port="5" to-layer="2338" to-port="0"/>
		<edge from-layer="1587" from-port="5" to-layer="2338" to-port="1"/>
		<edge from-layer="2339" from-port="0" to-layer="2340" to-port="0"/>
		<edge from-layer="2340" from-port="1" to-layer="2342" to-port="0"/>
		<edge from-layer="2341" from-port="0" to-layer="2342" to-port="1"/>
		<edge from-layer="2342" from-port="2" to-layer="2344" to-port="0"/>
		<edge from-layer="2343" from-port="0" to-layer="2344" to-port="1"/>
		<edge from-layer="2338" from-port="2" to-layer="2345" to-port="0"/>
		<edge from-layer="2344" from-port="2" to-layer="2345" to-port="1"/>
		<edge from-layer="2345" from-port="2" to-layer="2347" to-port="0"/>
		<edge from-layer="2346" from-port="0" to-layer="2347" to-port="1"/>
		<edge from-layer="2347" from-port="2" to-layer="2348" to-port="0"/>
		<edge from-layer="2348" from-port="1" to-layer="2349" to-port="0"/>
		<edge from-layer="2319" from-port="0" to-layer="2349" to-port="1"/>
		<edge from-layer="2320" from-port="0" to-layer="2349" to-port="2"/>
		<edge from-layer="2321" from-port="0" to-layer="2349" to-port="3"/>
		<edge from-layer="2322" from-port="0" to-layer="2349" to-port="4"/>
		<edge from-layer="2350" from-port="0" to-layer="2351" to-port="0"/>
		<edge from-layer="2351" from-port="1" to-layer="2353" to-port="0"/>
		<edge from-layer="2352" from-port="0" to-layer="2353" to-port="1"/>
		<edge from-layer="2353" from-port="2" to-layer="2355" to-port="0"/>
		<edge from-layer="2354" from-port="0" to-layer="2355" to-port="1"/>
		<edge from-layer="2349" from-port="5" to-layer="2356" to-port="0"/>
		<edge from-layer="2355" from-port="2" to-layer="2356" to-port="1"/>
		<edge from-layer="2356" from-port="2" to-layer="2358" to-port="0"/>
		<edge from-layer="2357" from-port="0" to-layer="2358" to-port="1"/>
		<edge from-layer="2358" from-port="2" to-layer="2359" to-port="0"/>
		<edge from-layer="2359" from-port="1" to-layer="2360" to-port="0"/>
		<edge from-layer="2315" from-port="0" to-layer="2360" to-port="1"/>
		<edge from-layer="2316" from-port="0" to-layer="2360" to-port="2"/>
		<edge from-layer="2317" from-port="0" to-layer="2360" to-port="3"/>
		<edge from-layer="2318" from-port="0" to-layer="2360" to-port="4"/>
		<edge from-layer="2361" from-port="0" to-layer="2362" to-port="0"/>
		<edge from-layer="2362" from-port="1" to-layer="2364" to-port="0"/>
		<edge from-layer="2363" from-port="0" to-layer="2364" to-port="1"/>
		<edge from-layer="2364" from-port="2" to-layer="2366" to-port="0"/>
		<edge from-layer="2365" from-port="0" to-layer="2366" to-port="1"/>
		<edge from-layer="2360" from-port="5" to-layer="2367" to-port="0"/>
		<edge from-layer="2366" from-port="2" to-layer="2367" to-port="1"/>
		<edge from-layer="2367" from-port="2" to-layer="2369" to-port="0"/>
		<edge from-layer="2368" from-port="0" to-layer="2369" to-port="1"/>
		<edge from-layer="2369" from-port="2" to-layer="2370" to-port="0"/>
		<edge from-layer="2370" from-port="1" to-layer="2371" to-port="0"/>
		<edge from-layer="2311" from-port="0" to-layer="2371" to-port="1"/>
		<edge from-layer="2312" from-port="0" to-layer="2371" to-port="2"/>
		<edge from-layer="2313" from-port="0" to-layer="2371" to-port="3"/>
		<edge from-layer="2314" from-port="0" to-layer="2371" to-port="4"/>
		<edge from-layer="2372" from-port="0" to-layer="2373" to-port="0"/>
		<edge from-layer="2373" from-port="1" to-layer="2375" to-port="0"/>
		<edge from-layer="2374" from-port="0" to-layer="2375" to-port="1"/>
		<edge from-layer="2375" from-port="2" to-layer="2377" to-port="0"/>
		<edge from-layer="2376" from-port="0" to-layer="2377" to-port="1"/>
		<edge from-layer="2371" from-port="5" to-layer="2378" to-port="0"/>
		<edge from-layer="2377" from-port="2" to-layer="2378" to-port="1"/>
		<edge from-layer="2378" from-port="2" to-layer="2380" to-port="0"/>
		<edge from-layer="2379" from-port="0" to-layer="2380" to-port="1"/>
		<edge from-layer="2380" from-port="2" to-layer="2381" to-port="0"/>
		<edge from-layer="2381" from-port="1" to-layer="2382" to-port="0"/>
		<edge from-layer="2307" from-port="0" to-layer="2382" to-port="1"/>
		<edge from-layer="2308" from-port="0" to-layer="2382" to-port="2"/>
		<edge from-layer="2309" from-port="0" to-layer="2382" to-port="3"/>
		<edge from-layer="2310" from-port="0" to-layer="2382" to-port="4"/>
		<edge from-layer="2383" from-port="0" to-layer="2384" to-port="0"/>
		<edge from-layer="2384" from-port="1" to-layer="2386" to-port="0"/>
		<edge from-layer="2385" from-port="0" to-layer="2386" to-port="1"/>
		<edge from-layer="2386" from-port="2" to-layer="2388" to-port="0"/>
		<edge from-layer="2387" from-port="0" to-layer="2388" to-port="1"/>
		<edge from-layer="2382" from-port="5" to-layer="2389" to-port="0"/>
		<edge from-layer="2388" from-port="2" to-layer="2389" to-port="1"/>
		<edge from-layer="2389" from-port="2" to-layer="2391" to-port="0"/>
		<edge from-layer="2390" from-port="0" to-layer="2391" to-port="1"/>
		<edge from-layer="2391" from-port="2" to-layer="2392" to-port="0"/>
		<edge from-layer="2392" from-port="1" to-layer="2393" to-port="0"/>
		<edge from-layer="2303" from-port="0" to-layer="2393" to-port="1"/>
		<edge from-layer="2304" from-port="0" to-layer="2393" to-port="2"/>
		<edge from-layer="2305" from-port="0" to-layer="2393" to-port="3"/>
		<edge from-layer="2306" from-port="0" to-layer="2393" to-port="4"/>
		<edge from-layer="2394" from-port="0" to-layer="2395" to-port="0"/>
		<edge from-layer="2395" from-port="1" to-layer="2397" to-port="0"/>
		<edge from-layer="2396" from-port="0" to-layer="2397" to-port="1"/>
		<edge from-layer="2397" from-port="2" to-layer="2399" to-port="0"/>
		<edge from-layer="2398" from-port="0" to-layer="2399" to-port="1"/>
		<edge from-layer="2393" from-port="5" to-layer="2400" to-port="0"/>
		<edge from-layer="2399" from-port="2" to-layer="2400" to-port="1"/>
		<edge from-layer="2400" from-port="2" to-layer="2402" to-port="0"/>
		<edge from-layer="2401" from-port="0" to-layer="2402" to-port="1"/>
		<edge from-layer="2402" from-port="2" to-layer="2403" to-port="0"/>
		<edge from-layer="2403" from-port="1" to-layer="2404" to-port="0"/>
		<edge from-layer="2299" from-port="0" to-layer="2404" to-port="1"/>
		<edge from-layer="2300" from-port="0" to-layer="2404" to-port="2"/>
		<edge from-layer="2301" from-port="0" to-layer="2404" to-port="3"/>
		<edge from-layer="2302" from-port="0" to-layer="2404" to-port="4"/>
		<edge from-layer="2405" from-port="0" to-layer="2406" to-port="0"/>
		<edge from-layer="2406" from-port="1" to-layer="2408" to-port="0"/>
		<edge from-layer="2407" from-port="0" to-layer="2408" to-port="1"/>
		<edge from-layer="2408" from-port="2" to-layer="2410" to-port="0"/>
		<edge from-layer="2409" from-port="0" to-layer="2410" to-port="1"/>
		<edge from-layer="2404" from-port="5" to-layer="2411" to-port="0"/>
		<edge from-layer="2410" from-port="2" to-layer="2411" to-port="1"/>
		<edge from-layer="2411" from-port="2" to-layer="2413" to-port="0"/>
		<edge from-layer="2412" from-port="0" to-layer="2413" to-port="1"/>
		<edge from-layer="2413" from-port="2" to-layer="2414" to-port="0"/>
		<edge from-layer="2414" from-port="1" to-layer="2415" to-port="0"/>
		<edge from-layer="2295" from-port="0" to-layer="2415" to-port="1"/>
		<edge from-layer="2296" from-port="0" to-layer="2415" to-port="2"/>
		<edge from-layer="2297" from-port="0" to-layer="2415" to-port="3"/>
		<edge from-layer="2298" from-port="0" to-layer="2415" to-port="4"/>
		<edge from-layer="2416" from-port="0" to-layer="2417" to-port="0"/>
		<edge from-layer="2417" from-port="1" to-layer="2419" to-port="0"/>
		<edge from-layer="2418" from-port="0" to-layer="2419" to-port="1"/>
		<edge from-layer="2419" from-port="2" to-layer="2421" to-port="0"/>
		<edge from-layer="2420" from-port="0" to-layer="2421" to-port="1"/>
		<edge from-layer="2415" from-port="5" to-layer="2422" to-port="0"/>
		<edge from-layer="2421" from-port="2" to-layer="2422" to-port="1"/>
		<edge from-layer="2422" from-port="2" to-layer="2424" to-port="0"/>
		<edge from-layer="2423" from-port="0" to-layer="2424" to-port="1"/>
		<edge from-layer="2424" from-port="2" to-layer="2425" to-port="0"/>
		<edge from-layer="2425" from-port="1" to-layer="2426" to-port="0"/>
		<edge from-layer="2291" from-port="0" to-layer="2426" to-port="1"/>
		<edge from-layer="2292" from-port="0" to-layer="2426" to-port="2"/>
		<edge from-layer="2293" from-port="0" to-layer="2426" to-port="3"/>
		<edge from-layer="2294" from-port="0" to-layer="2426" to-port="4"/>
		<edge from-layer="2427" from-port="0" to-layer="2428" to-port="0"/>
		<edge from-layer="2428" from-port="1" to-layer="2430" to-port="0"/>
		<edge from-layer="2429" from-port="0" to-layer="2430" to-port="1"/>
		<edge from-layer="2430" from-port="2" to-layer="2432" to-port="0"/>
		<edge from-layer="2431" from-port="0" to-layer="2432" to-port="1"/>
		<edge from-layer="2426" from-port="5" to-layer="2433" to-port="0"/>
		<edge from-layer="2432" from-port="2" to-layer="2433" to-port="1"/>
		<edge from-layer="2433" from-port="2" to-layer="2435" to-port="0"/>
		<edge from-layer="2434" from-port="0" to-layer="2435" to-port="1"/>
		<edge from-layer="2435" from-port="2" to-layer="2436" to-port="0"/>
		<edge from-layer="2436" from-port="1" to-layer="2437" to-port="0"/>
		<edge from-layer="2287" from-port="0" to-layer="2437" to-port="1"/>
		<edge from-layer="2288" from-port="0" to-layer="2437" to-port="2"/>
		<edge from-layer="2289" from-port="0" to-layer="2437" to-port="3"/>
		<edge from-layer="2290" from-port="0" to-layer="2437" to-port="4"/>
		<edge from-layer="2442" from-port="0" to-layer="2443" to-port="0"/>
		<edge from-layer="2443" from-port="1" to-layer="2445" to-port="0"/>
		<edge from-layer="2444" from-port="0" to-layer="2445" to-port="1"/>
		<edge from-layer="2445" from-port="2" to-layer="2447" to-port="0"/>
		<edge from-layer="2446" from-port="0" to-layer="2447" to-port="1"/>
		<edge from-layer="2338" from-port="2" to-layer="2448" to-port="0"/>
		<edge from-layer="2447" from-port="2" to-layer="2448" to-port="1"/>
		<edge from-layer="2448" from-port="2" to-layer="2450" to-port="0"/>
		<edge from-layer="2449" from-port="0" to-layer="2450" to-port="1"/>
		<edge from-layer="2450" from-port="2" to-layer="2451" to-port="0"/>
		<edge from-layer="2451" from-port="1" to-layer="2452" to-port="0"/>
		<edge from-layer="2438" from-port="0" to-layer="2452" to-port="1"/>
		<edge from-layer="2439" from-port="0" to-layer="2452" to-port="2"/>
		<edge from-layer="2440" from-port="0" to-layer="2452" to-port="3"/>
		<edge from-layer="2441" from-port="0" to-layer="2452" to-port="4"/>
		<edge from-layer="2437" from-port="5" to-layer="2453" to-port="0"/>
		<edge from-layer="2452" from-port="5" to-layer="2453" to-port="1"/>
		<edge from-layer="2454" from-port="0" to-layer="2455" to-port="0"/>
		<edge from-layer="2455" from-port="1" to-layer="2457" to-port="0"/>
		<edge from-layer="2456" from-port="0" to-layer="2457" to-port="1"/>
		<edge from-layer="2457" from-port="2" to-layer="2459" to-port="0"/>
		<edge from-layer="2458" from-port="0" to-layer="2459" to-port="1"/>
		<edge from-layer="2453" from-port="2" to-layer="2460" to-port="0"/>
		<edge from-layer="2459" from-port="2" to-layer="2460" to-port="1"/>
		<edge from-layer="2460" from-port="2" to-layer="2462" to-port="0"/>
		<edge from-layer="2461" from-port="0" to-layer="2462" to-port="1"/>
		<edge from-layer="2462" from-port="2" to-layer="2463" to-port="0"/>
		<edge from-layer="2463" from-port="1" to-layer="2464" to-port="0"/>
		<edge from-layer="2283" from-port="0" to-layer="2464" to-port="1"/>
		<edge from-layer="2284" from-port="0" to-layer="2464" to-port="2"/>
		<edge from-layer="2285" from-port="0" to-layer="2464" to-port="3"/>
		<edge from-layer="2286" from-port="0" to-layer="2464" to-port="4"/>
		<edge from-layer="2465" from-port="0" to-layer="2466" to-port="0"/>
		<edge from-layer="2466" from-port="1" to-layer="2468" to-port="0"/>
		<edge from-layer="2467" from-port="0" to-layer="2468" to-port="1"/>
		<edge from-layer="2468" from-port="2" to-layer="2470" to-port="0"/>
		<edge from-layer="2469" from-port="0" to-layer="2470" to-port="1"/>
		<edge from-layer="2464" from-port="5" to-layer="2471" to-port="0"/>
		<edge from-layer="2470" from-port="2" to-layer="2471" to-port="1"/>
		<edge from-layer="2471" from-port="2" to-layer="2473" to-port="0"/>
		<edge from-layer="2472" from-port="0" to-layer="2473" to-port="1"/>
		<edge from-layer="2473" from-port="2" to-layer="2474" to-port="0"/>
		<edge from-layer="2474" from-port="1" to-layer="2475" to-port="0"/>
		<edge from-layer="2279" from-port="0" to-layer="2475" to-port="1"/>
		<edge from-layer="2280" from-port="0" to-layer="2475" to-port="2"/>
		<edge from-layer="2281" from-port="0" to-layer="2475" to-port="3"/>
		<edge from-layer="2282" from-port="0" to-layer="2475" to-port="4"/>
		<edge from-layer="2476" from-port="0" to-layer="2477" to-port="0"/>
		<edge from-layer="2477" from-port="1" to-layer="2479" to-port="0"/>
		<edge from-layer="2478" from-port="0" to-layer="2479" to-port="1"/>
		<edge from-layer="2479" from-port="2" to-layer="2481" to-port="0"/>
		<edge from-layer="2480" from-port="0" to-layer="2481" to-port="1"/>
		<edge from-layer="2475" from-port="5" to-layer="2482" to-port="0"/>
		<edge from-layer="2481" from-port="2" to-layer="2482" to-port="1"/>
		<edge from-layer="2482" from-port="2" to-layer="2484" to-port="0"/>
		<edge from-layer="2483" from-port="0" to-layer="2484" to-port="1"/>
		<edge from-layer="2484" from-port="2" to-layer="2485" to-port="0"/>
		<edge from-layer="2485" from-port="1" to-layer="2486" to-port="0"/>
		<edge from-layer="2275" from-port="0" to-layer="2486" to-port="1"/>
		<edge from-layer="2276" from-port="0" to-layer="2486" to-port="2"/>
		<edge from-layer="2277" from-port="0" to-layer="2486" to-port="3"/>
		<edge from-layer="2278" from-port="0" to-layer="2486" to-port="4"/>
		<edge from-layer="2487" from-port="0" to-layer="2488" to-port="0"/>
		<edge from-layer="2488" from-port="1" to-layer="2490" to-port="0"/>
		<edge from-layer="2489" from-port="0" to-layer="2490" to-port="1"/>
		<edge from-layer="2490" from-port="2" to-layer="2492" to-port="0"/>
		<edge from-layer="2491" from-port="0" to-layer="2492" to-port="1"/>
		<edge from-layer="2486" from-port="5" to-layer="2493" to-port="0"/>
		<edge from-layer="2492" from-port="2" to-layer="2493" to-port="1"/>
		<edge from-layer="2493" from-port="2" to-layer="2495" to-port="0"/>
		<edge from-layer="2494" from-port="0" to-layer="2495" to-port="1"/>
		<edge from-layer="2495" from-port="2" to-layer="2496" to-port="0"/>
		<edge from-layer="2496" from-port="1" to-layer="2497" to-port="0"/>
		<edge from-layer="2271" from-port="0" to-layer="2497" to-port="1"/>
		<edge from-layer="2272" from-port="0" to-layer="2497" to-port="2"/>
		<edge from-layer="2273" from-port="0" to-layer="2497" to-port="3"/>
		<edge from-layer="2274" from-port="0" to-layer="2497" to-port="4"/>
		<edge from-layer="2498" from-port="0" to-layer="2499" to-port="0"/>
		<edge from-layer="2499" from-port="1" to-layer="2501" to-port="0"/>
		<edge from-layer="2500" from-port="0" to-layer="2501" to-port="1"/>
		<edge from-layer="2501" from-port="2" to-layer="2503" to-port="0"/>
		<edge from-layer="2502" from-port="0" to-layer="2503" to-port="1"/>
		<edge from-layer="2497" from-port="5" to-layer="2504" to-port="0"/>
		<edge from-layer="2503" from-port="2" to-layer="2504" to-port="1"/>
		<edge from-layer="2504" from-port="2" to-layer="2506" to-port="0"/>
		<edge from-layer="2505" from-port="0" to-layer="2506" to-port="1"/>
		<edge from-layer="2507" from-port="0" to-layer="2508" to-port="0"/>
		<edge from-layer="2508" from-port="1" to-layer="2510" to-port="0"/>
		<edge from-layer="2509" from-port="0" to-layer="2510" to-port="1"/>
		<edge from-layer="2510" from-port="2" to-layer="2512" to-port="0"/>
		<edge from-layer="2511" from-port="0" to-layer="2512" to-port="1"/>
		<edge from-layer="2497" from-port="5" to-layer="2513" to-port="0"/>
		<edge from-layer="2512" from-port="2" to-layer="2513" to-port="1"/>
		<edge from-layer="2513" from-port="2" to-layer="2515" to-port="0"/>
		<edge from-layer="2514" from-port="0" to-layer="2515" to-port="1"/>
		<edge from-layer="2515" from-port="2" to-layer="2516" to-port="0"/>
		<edge from-layer="2525" from-port="0" to-layer="2526" to-port="0"/>
		<edge from-layer="2526" from-port="1" to-layer="2528" to-port="0"/>
		<edge from-layer="2527" from-port="0" to-layer="2528" to-port="1"/>
		<edge from-layer="2528" from-port="2" to-layer="2530" to-port="0"/>
		<edge from-layer="2529" from-port="0" to-layer="2530" to-port="1"/>
		<edge from-layer="2475" from-port="5" to-layer="2531" to-port="0"/>
		<edge from-layer="2530" from-port="2" to-layer="2531" to-port="1"/>
		<edge from-layer="2531" from-port="2" to-layer="2533" to-port="0"/>
		<edge from-layer="2532" from-port="0" to-layer="2533" to-port="1"/>
		<edge from-layer="2533" from-port="2" to-layer="2534" to-port="0"/>
		<edge from-layer="2534" from-port="1" to-layer="2535" to-port="0"/>
		<edge from-layer="2521" from-port="0" to-layer="2535" to-port="1"/>
		<edge from-layer="2522" from-port="0" to-layer="2535" to-port="2"/>
		<edge from-layer="2523" from-port="0" to-layer="2535" to-port="3"/>
		<edge from-layer="2524" from-port="0" to-layer="2535" to-port="4"/>
		<edge from-layer="2536" from-port="0" to-layer="2537" to-port="0"/>
		<edge from-layer="2537" from-port="1" to-layer="2539" to-port="0"/>
		<edge from-layer="2538" from-port="0" to-layer="2539" to-port="1"/>
		<edge from-layer="2539" from-port="2" to-layer="2541" to-port="0"/>
		<edge from-layer="2540" from-port="0" to-layer="2541" to-port="1"/>
		<edge from-layer="2535" from-port="5" to-layer="2542" to-port="0"/>
		<edge from-layer="2541" from-port="2" to-layer="2542" to-port="1"/>
		<edge from-layer="2542" from-port="2" to-layer="2544" to-port="0"/>
		<edge from-layer="2543" from-port="0" to-layer="2544" to-port="1"/>
		<edge from-layer="2544" from-port="2" to-layer="2545" to-port="0"/>
		<edge from-layer="2545" from-port="1" to-layer="2546" to-port="0"/>
		<edge from-layer="2517" from-port="0" to-layer="2546" to-port="1"/>
		<edge from-layer="2518" from-port="0" to-layer="2546" to-port="2"/>
		<edge from-layer="2519" from-port="0" to-layer="2546" to-port="3"/>
		<edge from-layer="2520" from-port="0" to-layer="2546" to-port="4"/>
		<edge from-layer="2547" from-port="0" to-layer="2548" to-port="0"/>
		<edge from-layer="2548" from-port="1" to-layer="2550" to-port="0"/>
		<edge from-layer="2549" from-port="0" to-layer="2550" to-port="1"/>
		<edge from-layer="2550" from-port="2" to-layer="2552" to-port="0"/>
		<edge from-layer="2551" from-port="0" to-layer="2552" to-port="1"/>
		<edge from-layer="2546" from-port="5" to-layer="2553" to-port="0"/>
		<edge from-layer="2552" from-port="2" to-layer="2553" to-port="1"/>
		<edge from-layer="2553" from-port="2" to-layer="2555" to-port="0"/>
		<edge from-layer="2554" from-port="0" to-layer="2555" to-port="1"/>
		<edge from-layer="2555" from-port="2" to-layer="2556" to-port="0"/>
		<edge from-layer="2506" from-port="2" to-layer="2557" to-port="0"/>
		<edge from-layer="2516" from-port="1" to-layer="2557" to-port="1"/>
		<edge from-layer="2556" from-port="1" to-layer="2557" to-port="2"/>
		<edge from-layer="2557" from-port="3" to-layer="2559" to-port="0"/>
		<edge from-layer="2558" from-port="0" to-layer="2559" to-port="1"/>
		<edge from-layer="1981" from-port="2" to-layer="2560" to-port="0"/>
		<edge from-layer="2270" from-port="2" to-layer="2560" to-port="1"/>
		<edge from-layer="2559" from-port="2" to-layer="2560" to-port="2"/>
		<edge from-layer="2560" from-port="3" to-layer="2562" to-port="0"/>
		<edge from-layer="2561" from-port="0" to-layer="2562" to-port="1"/>
		<edge from-layer="2562" from-port="2" to-layer="2563" to-port="0"/>
	</edges>
	<meta_data>
		<MO_version value="2021.4.2-3974-e2a469a3450-releases/2021/4"/>
		<cli_parameters>
			<caffe_parser_path value="DIR"/>
			<data_type value="FP16"/>
			<disable_nhwc_to_nchw value="False"/>
			<disable_omitting_optional value="False"/>
			<disable_resnet_optimization value="False"/>
			<disable_weights_compression value="False"/>
			<enable_concat_optimization value="False"/>
			<enable_flattening_nested_params value="False"/>
			<enable_ssd_gluoncv value="False"/>
			<extensions value="DIR"/>
			<framework value="onnx"/>
			<freeze_placeholder_with_value value="{}"/>
			<generate_deprecated_IR_V7 value="False"/>
			<input value="images"/>
			<input_model value="DIR/yolox_x.onnx"/>
			<input_model_is_text value="False"/>
			<input_shape value="[1,3,640,640]"/>
			<k value="DIR/CustomLayersMapping.xml"/>
			<keep_shape_ops value="True"/>
			<legacy_ir_generation value="False"/>
			<legacy_mxnet_model value="False"/>
			<log_level value="ERROR"/>
			<mean_scale_values value="{}"/>
			<mean_values value="()"/>
			<model_name value="yolox_x"/>
			<output_dir value="DIR"/>
			<placeholder_data_types value="{}"/>
			<placeholder_shapes value="{'images': array([  1,   3, 640, 640])}"/>
			<progress value="True"/>
			<remove_memory value="False"/>
			<remove_output_softmax value="False"/>
			<reverse_input_channels value="True"/>
			<save_params_from_nd value="False"/>
			<scale_values value="()"/>
			<silent value="False"/>
			<static_shape value="False"/>
			<stream_output value="True"/>
			<transform value=""/>
			<unset unset_cli_parameters="batch, counts, disable_fusing, disable_gfusing, finegrain_fusing, input_checkpoint, input_meta_graph, input_proto, input_symbol, mean_file, mean_file_offsets, move_to_preprocess, nd_prefix_name, output, pretrained_model_name, saved_model_dir, saved_model_tags, scale, tensorboard_logdir, tensorflow_custom_layer_libraries, tensorflow_custom_operations_config_update, tensorflow_object_detection_api_pipeline_config, tensorflow_use_custom_operations_config, transformations_config"/>
		</cli_parameters>
	</meta_data>
	<quantization_parameters>
		<config>{
		'compression': {
			'target_device': 'CPU',
			'algorithms': [
				{
					'name': 'DefaultQuantization',
					'params': {
						'preset': 'performance',
						'stat_subset_size': 1500
					}
				}
			]
		},
		'engine': {
			'type': 'simplified',
			'data_source': 'PATH',
			'device': 'CPU'
		}
	}</config>
		<version value="1.0"/>
		<cli_params value="{'quantize': None, 'preset': None, 'model': None, 'weights': None, 'name': None, 'ac_config': None, 'max_drop': None, 'evaluate': False, 'output_dir': 'PATH', 'direct_dump': True, 'log_level': 'INFO', 'pbar': True, 'stream_output': False, 'keep_uncompressed_weights': False}"/>
	</quantization_parameters>
</net>
